models/BAN0.ckpt (torch, 630667 bytes, 8 tensors)

net.0.weight f4 [242, 486]
0	0xbc08cf48	-0.008350201
1	0x3c24c316	0.010056278
2	0xbd0c39ac	-0.034234688
3	0xbc91c4d2	-0.017794047
4	0x3d19d9d7	0.037561264
5	0x3d1ae291	0.037813727
6	0xbc8e6a17	-0.017384572
7	0xbc2dbfee	-0.010604842
8	0xbd29523b	-0.041338187
9	0xbcd38051	-0.025818022
10	0x3ca0283c	0.019550435
11	0xbcdc1b74	-0.02686856
12	0x3cc0caba	0.023534168
13	0x3c3770bb	0.011196311
14	0xbd03621f	-0.032075997
15	0xbc47bbf8	-0.012190811
16	0x3cb85e60	0.022505939
17	0x3b848f69	0.004045416
18	0x3cafd8c8	0.021465674
19	0xbc9a500f	-0.018837003
20	0x3b88b6c3	0.0041721775
21	0xbcbd259e	-0.023089226
22	0xbc926728	-0.017871454
23	0x3ce1c54e	0.027559903
24	0xbca9d177	-0.020729763
25	0x3c393726	0.011304652
26	0x3cb55ff4	0.02214048
27	0x3d0f851f	0.035039064
28	0xbcf59b45	-0.029981265
29	0x3c6986df	0.014253347
30	0x3ce37954	0.027767815
31	0x3d2d18c9	0.042259965
32	0xbd0d5225	-0.034502167
33	0xbca1f824	-0.019771643
34	0x3ca26a14	0.019825973
35	0x3c843673	0.016139245
36	0xbd2be620	-0.04196751
37	0xbbe20c3d	-0.0068984316
38	0x3c95b5f8	0.018275246
39	0x3d0afc5d	0.03393208
40	0xbc51405c	-0.012771692
41	0xbd00c09a	-0.03143368
42	0x3b86fe52	0.004119673
43	0xba8f850a	-0.0010949683
44	0xbcea6ffb	-0.02861785
45	0x3c893a74	0.016751505
46	0xbb05de56	-0.0020426712
47	0x3c3e9a3b	0.011633451
48	0x3d101a31	0.035181228
49	0xbc22dfbc	-0.009941038
50	0x3d351d78	0.044217557
51	0xbd252049	-0.040313993
52	0x3be88c2c	0.007096788
53	0x3d241417	0.04005822
54	0x3c213bd3	0.009840923
55	0x3d26f906	0.04076483
56	0x3d1e1e1a	0.038602926
57	0x3ca056fd	0.01957273
58	0x3c858ddd	0.016302997
59	0xbcf1f539	-0.029535877
60	0x3c658e35	0.014010956
61	0xbcab3c09	-0.02090265
62	0x3b79dfba	0.0038127736
63	0x3d25b676	0.04045721
64	0x3d1b78a7	0.03795686
65	0x3d052c55	0.03251298
66	0xbc22e4c1	-0.0099422345
67	0xbd2254fb	-0.039631825
68	0xbc5d849a	-0.013520384
69	0xbce3ba1b	-0.027798703
70	0x3d42cb43	0.047557127
71	0xbc111e35	-0.0088573
72	0x3a441485	0.0007479864
73	0x3c61c25b	0.013779248
74	0x3c290631	0.010316418
75	0x3c8fd646	0.017558228
76	0x3c8d5e42	0.01725686
77	0xbcdf98cf	-0.027294545
78	0x3cc21c3c	0.023695104
79	0xbc9f43f1	-0.019441577
80	0xbc4c85b0	-0.012483045
81	0x3bb2b76d	0.005453995
82	0xbc803f37	-0.015655143
83	0xbc812e01	-0.015769007
84	0x3d293e2c	0.041319057
85	0xbc28d2ae	-0.010304136
86	0x3d411286	0.047136806
87	0x3d21ba6e	0.039484434
88	0x3b21af2c	0.002467106
89	0x3d019f08	0.031645805
90	0x3c2a36d4	0.010389049
91	0x3b1f876d	0.0024342195
92	0xbbf880cd	-0.0075837136
93	0x3ce13dfa	0.027495373
94	0x3cfd75ad	0.030939901
95	0x3a7eb13f	0.0009715743
96	0x3d263ed2	0.040587254
97	0x3d105734	0.035239413
98	0x3d381108	0.044938117
99	0xbcdcc2d0	-0.026948363
100	0xbc8b1b9a	-0.016980935
101	0x3d3ac1fa	0.045595147
102	0x3b343c9c	0.0027501946
103	0x3d432aef	0.047648367
104	0x3d2911d8	0.041276783
105	0x3987d19a	0.00025905372
106	0x3d1f6daf	0.03892296
107	0xbc4746b2	-0.012162851
108	0x3cfe9572	0.03107712
109	0x3cf39958	0.029736206
110	0xbce4b549	-0.027918475
111	0xbbc48532	-0.0059973234
112	0xbc84e555	-0.016222635
113	0x3c8f7651	0.017512472
114	0x3d203429	0.039112244
115	0xbc42ccdd	-0.0118896635
116	0x3c4b20d4	0.012397964
117	0x3cc0159b	0.023447802
118	0xbcbaded3	-0.022811329
119	0xbb965175	-0.004587347
120	0x3d14eac9	0.03635672
121	0x3ac7bbc7	0.0015238457
122	0x3d00553c	0.031331286
123	0xbc9136dc	-0.017726354
124	0x3cd211bb	0.02564322
125	0xbc050976	-0.008119931
126	0xbc851cf2	-0.016249154
127	0xbb8f0761	-0.0043648933
128	0x3c0b6ab2	0.008509325
129	0x3cb7eed5	0.022452751
130	0x3c08ef3e	0.008357821
131	0x3d024330	0.031802356
132	0x3ce9e34d	0.028550768
133	0xbc87bd51	-0.016569765
134	0x3abd894e	0.0014460476
135	0x3d00bc47	0.031429555
136	0xbcc4615a	-0.023972202
137	0x3b99f436	0.0046983017
138	0x3b04be89	0.002025517
139	0xbc84a4aa	-0.0161918
140	0x38cc6769	9.74674e-05
141	0xbb050459	-0.002029678
142	0xbcec50aa	-0.028847057
143	0xbc9d8c60	-0.019231975
144	0xbc41d3fc	-0.011830326
145	0xbbf1ec90	-0.007382937
146	0xbd1e07c9	-0.038581643
147	0x3c1d17b3	0.00958817
148	0xbae5c356	-0.0017529528
149	0x3c92336b	0.017846784
150	0xbcf156e2	-0.029460374
151	0x3c30ddcd	0.010795069
152	0x3d393bbe	0.04522299
153	0xbb6f9853	-0.0036559298
154	0x3ba692de	0.005083426
155	0x3cccd591	0.02500418
156	0xbc953006	-0.018211376
157	0x3d45ba88	0.048273593
158	0xbd0b18d2	-0.033959217
159	0x3d410e51	0.047132794
160	0x381c1d4b	3.722058e-05
161	0xbbcbf900	-0.0062247515
162	0x3d3bd456	0.045856796
163	0x3d075e1b	0.03304873
164	0x3c937656	0.018000763
165	0x3d36e41c	0.044651136
166	0x3c99eaaf	0.018788664
167	0x3c5f3349	0.013623067
168	0x3cc6f4b3	0.024286604
169	0x3d149742	0.036277063
170	0x3d3e9b97	0.0465351
171	0x3b3dc226	0.0028954833
172	0x3d0b7d13	0.034054827
173	0xbd257e9c	-0.040403947
174	0xbbdec07a	-0.0067978473
175	0xbb42c322	-0.002971836
176	0x3d24c2ca	0.040224828
177	0x3cdeb1e8	0.027184442
178	0x3d43511b	0.04768477
179	0xbd138112	-0.036011763
180	0xbc81f24e	-0.01586261
181	0xbc093aba	-0.008375818
182	0x3cb8d5c8	0.022562876
183	0xbad6427c	-0.0016346718
184	0xbccd1017	-0.025032086
185	0xbbff0ce7	-0.0077835205
186	0xbd0d703f	-0.034530874
187	0xbb83fe3c	-0.00402811
188	0x3cee6b9b	0.029104045
189	0x3cf3bca1	0.029753031
190	0xbce40301	-0.027833464
191	0xbcf32b4e	-0.029683735
192	0x3d38d87b	0.045128327
193	0x3d1d8ca0	0.03846419
194	0xbbc0f08d	-0.005888051
195	0x3d3e2b63	0.046428096
196	0xbb8486e8	-0.0040444024
197	0x3cbcbe2f	0.023039905
198	0x3d38dbac	0.04513137
199	0xbcb902cf	-0.022584347
200	0x3d323a03	0.043512356
201	0xbc3425a2	-0.0109953005
202	0x3d42b20e	0.047533087
203	0xbd01f2f1	-0.031725828
204	0x3bf388cc	0.007432079
205	0x3cc01975	0.023449639
206	0x3d299cad	0.041409183
207	0x3cbd3a17	0.023098988
208	0xbc7178e4	-0.014738295
209	0x3ceafbb1	0.028684469
210	0xbc291359	-0.010319554
211	0xbcdb3f95	-0.026763717
212	0x3d37bacf	0.04485589
213	0xbc3702c8	-0.011170097
214	0xbcb76c20	-0.022390425
215	0xbc96a1c3	-0.01838768
216	0x3c58ef61	0.013240666
217	0xbb789340	-0.0037929565
218	0x3d14a796	0.036292635
219	0xbc00da42	-0.007864537
220	0x3c2334c5	0.009961312
221	0x3bcb1baf	0.0061983685
222	0xbcfe62e9	-0.031053023
223	0x3d067c61	0.03283346
224	0xbcb193db	-0.021676948
225	0x3c279e6d	0.010230643
226	0xbc9df7ae	-0.019283142
227	0x3c6f1302	0.014591934
228	0x3d403b58	0.046931595
229	0x3d38746c	0.045032904
230	0x3c846848	0.016163006
231	0xbca47395	-0.020074645
232	0x3c591a14	0.013250846
233	0x3b90ab04	0.004414918
234	0xbc97da86	-0.018536817
235	0x3d318b2a	0.043345608
236	0xbd0fa9ae	-0.03507393
237	0xbce1a09a	-0.027542401
238	0x3b1a7e99	0.0023573993
239	0x3cce296c	0.025166236
240	0x3cd77f9b	0.026305964
241	0x3c9674c1	0.01836622
242	0x3b6dd036	0.0036287433
243	0xbce2a4e2	-0.027666513
244	0xbc4c19f8	-0.012457363
245	0xbcc6b406	-0.024255764
246	0xbce390bf	-0.027778981
247	0x3c5eee17	0.01360657
248	0x3bcf91c7	0.0063345167
249	0x3d20b21d	0.039232362
250	0x3d3afba9	0.045650158
251	0x3c04315a	0.008068407
252	0x3ceff6d6	0.029292505
253	0x3cc0fa96	0.023556989
254	0x3b078bc0	0.0020682663
255	0x3d29c752	0.041449852

net.0.bias f4 [242]
0	0x3d33265a	0.043737747
1	0xbda691ce	-0.08133279
2	0xbd392652	-0.04520256
3	0x3dde959e	0.10868381
4	0x3da6ff37	0.08154147
5	0x3c38e9eb	0.011286239
6	0xbd158e48	-0.036512643
7	0xbdc74d6a	-0.097315624
8	0xbdb65974	-0.089037806
9	0x3e1295e0	0.14314985
10	0x3c84b316	0.016198676
11	0x3e00852f	0.12550806
12	0xbe6a23b9	-0.2286519
13	0x3d112bba	0.03544209
14	0xbc237780	-0.0099772215
15	0x3e879b8d	0.26485863
16	0x3d73c6f3	0.059515905
17	0xbd44c2e3	-0.04803742
18	0xbcb1f77a	-0.021724451
19	0xbd2d169a	-0.042257883
20	0xbcac81d6	-0.021058004
21	0xbca822bc	-0.020524375
22	0x3c62bea0	0.013839394
23	0xbd2aff55	-0.04174741
24	0xbbbf82c4	-0.005844446
25	0xbd29d8ff	-0.04146671
26	0x3dcbc8d6	0.09950416
27	0x3d031d83	0.032010566
28	0x3ddc5673	0.107586764
29	0x3dd89621	0.1057551
30	0xbe6f1d33	-0.23350982
31	0x3e25d4d4	0.16194469
32	0xbc26b5dd	-0.0101751955
33	0x3d8131f8	0.06308359
34	0xbe09d0ea	-0.134586
35	0xbdcda40d	-0.10041056
36	0xbe5001b7	-0.20313154
37	0x3dbff355	0.09372584
38	0xbca2bf0a	-0.019866485
39	0xbe03fb95	-0.1288894
40	0x3cde719f	0.027153788
41	0xbdcc3c95	-0.099724926
42	0x3dde5e49	0.10857827
43	0x3ce7cae3	0.028294986
44	0xbb892647	-0.004185471
45	0x3e12589c	0.14291614
46	0x3e27c04a	0.16381946
47	0x3dd4c1fe	0.103885636
48	0x3c7d3e42	0.015456738
49	0x3dbe9e74	0.09307566
50	0x3dc4840f	0.09595501
51	0x3d9c5f4d	0.07635365
52	0xbd47fdbf	-0.048825976
53	0xbd2cd8ad	-0.042198826
54	0x3da44cdb	0.080224715
55	0xbdffbccc	-0.12487182
56	0x3d8b3863	0.06797864
57	0xbd87dee9	-0.066343136
58	0x3e5d6f9c	0.21624607
59	0xbdc62edf	-0.09676909
60	0xbd8abb8a	-0.067740515
61	0x3e2568a7	0.16153203
62	0xbbc0667e	-0.005871593
63	0x3d283323	0.041064393
64	0x3d8b8946	0.06813292
65	0x3c800348	0.015626565
66	0xbbd995bb	-0.0066401637
67	0x3e05e850	0.13076901
68	0x3e442d3f	0.19157885
69	0x3dbb5bdb	0.091483794
70	0x3e69a364	0.22816235
71	0x3cff2ff8	0.031150803
72	0xbd7dfc7a	-0.06200836
73	0x3dfd479b	0.12367173
74	0x3e75956a	0.23982778
75	0x3ca8a7c6	0.020587813
76	0xbd32ac86	-0.043621562
77	0x3d5e28d8	0.05423817
78	0xbc023801	-0.007947923
79	0x3dccba04	0.09996417
80	0xbd8245ac	-0.06360945
81	0xbdfeffda	-0.124511436
82	0xbcc18927	-0.02362497
83	0x3e4d5216	0.20050845
84	0xbe330cbb	-0.17485325
85	0x3ddf4733	0.10902252
86	0xbe0cea4f	-0.13761257
87	0xbe3403c5	-0.17579563
88	0xbc11dac6	-0.008902257
89	0x3e242c11	0.16032435
90	0xbdcbd4d9	-0.09952707
91	0x3e351c68	0.17686617
92	0x3cc15ae4	0.02360291
93	0x3df8bd88	0.12145525
94	0xbd796dcd	-0.06089573
95	0x3e0a929f	0.13532494
96	0x3d8ab40e	0.06772624
97	0x3d9a50ae	0.0753492
98	0xbe62608a	-0.22107139
99	0xbe83889b	-0.2569016
100	0xbe23b034	-0.15985185
101	0xbd59dfe0	-0.05319202
102	0xbd28281b	-0.041053873
103	0xbd91b3f3	-0.07114401
104	0xbd9e1af1	-0.077199824
105	0xbd900e4e	-0.070339784
106	0x3cb9ee60	0.022696674
107	0x3e3230da	0.17401448
108	0x3d325ae1	0.0435437
109	0x3b46c59a	0.0030330182
110	0xbc8ed9b1	-0.017437788
111	0xbd0e5028	-0.03474441
112	0xbc9d601c	-0.019210868
113	0x3e3f46c5	0.1867934
114	0x3df28976	0.11842625
115	0x3c5f0394	0.013611693
116	0xbdc53d4e	-0.096308336
117	0xbe7ade49	-0.24498858
118	0xbe0a2ecd	-0.13494416
119	0xbde75e94	-0.11297336
120	0x3e382086	0.17981157
121	0xbd742048	-0.0596011
122	0x3de174ab	0.11008581
123	0xbd81a8ef	-0.0633105
124	0xbe74d9ce	-0.23911211
125	0xbdc74d78	-0.09731573
126	0x3d404152	0.046937294
127	0xbe0a9132	-0.1353195
128	0x3de15418	0.11002368
129	0x3c9babf9	0.019002901
130	0xbd8f3e26	-0.06994276
131	0xbd196896	-0.037453257
132	0x3ce7233a	0.02821504
133	0x3d13aa92	0.03605134
134	0xbd87ab05	-0.06624416
135	0xbe369c32	-0.17833021
136	0xbe3ede14	-0.18639404
137	0x3e3ef906	0.18649682
138	0x3e0243bb	0.1272115
139	0xbdd31bab	-0.103080116
140	0xbe027c31	-0.12742688
141	0x3dd18be0	0.10231757
142	0xbe128af3	-0.14310817
143	0x3dcc57da	0.09977694
144	0x3df76ec0	0.12081671
145	0x3d1b2099	0.037872884
146	0x3de1c4b5	0.11023847
147	0x3c3d6737	0.011560253
148	0xbb971b75	-0.0046114274
149	0x3e1b2598	0.1515106
150	0x3d5d3eb1	0.054014865
151	0xbdb5442b	-0.08850893
152	0x3d8701a6	0.06592111
153	0xbd43b725	-0.047782082
154	0xbcd34004	-0.025787361
155	0x3e0348d1	0.12820746
156	0x3d2f5c82	0.04281283
157	0x3dc4c116	0.09607141
158	0xbe4804a4	-0.1953302
159	0x3cc75d3f	0.024336455
160	0xbc58bf0f	-0.013229146
161	0x3e0e0233	0.13868026
162	0x3db75302	0.08951379
163	0xbe185510	-0.14876199
164	0xbc1d0e28	-0.009585895
165	0xbe1970dd	-0.1498446
166	0xbdf39326	-0.11893301
167	0x3e55daf1	0.20884301
168	0xbc955d0d	-0.018232847
169	0xbe02037b	-0.1269664
170	0x3dba7c0e	0.09105693
171	0xbe0e669b	-0.13906328
172	0x3d2b830d	0.041873027
173	0x3d83cbd5	0.06435362
174	0x3c841fae	0.016128387
175	0xbda5e0e8	-0.08099538
176	0x3c7d1c1d	0.015448597
177	0xbe01dd33	-0.12682037
178	0x3d668b7f	0.056285378
179	0x3d0cc23c	0.034364924
180	0x3e281c37	0.16417013
181	0x3e0ffd1c	0.14061397
182	0xbda0ef3e	-0.07858132
183	0xbe3f04c7	-0.18654166
184	0xbc3e57d5	-0.0116176205
185	0x3c2e4cdb	0.010638441
186	0x3d9bca14	0.07606903
187	0x3dbde642	0.09272434
188	0x3e450f18	0.19244039
189	0xbc2181d0	-0.00985761
190	0x3d9c4fc3	0.07632401
191	0x3e201d0a	0.15636078
192	0xbda304c1	-0.07959891
193	0xbdbbd8ca	-0.091722086
194	0x3d906c1c	0.0705187
195	0x3de45b95	0.111502804
196	0x3d3f52c2	0.046709783
197	0x3ba0066a	0.004883577
198	0x3d51785e	0.05114018
199	0xbe676aa4	-0.22599274
200	0xbcf638cf	-0.030056385
201	0x3d83789a	0.06419487
202	0x3d9ce2dc	0.076604575
203	0x3de09d0e	0.10967456
204	0x3dca125f	0.09866785
205	0xbd0d72c0	-0.034533262
206	0x3e12fbd7	0.14353882
207	0xbdbb53b7	-0.09146827
208	0x3e35c91e	0.17752501
209	0xbdb7675a	-0.089552596
210	0xbd1e03b6	-0.038577758
211	0x3e0b2b84	0.13590819
212	0x3ceb00c2	0.028686885
213	0x3d24d821	0.04024518
214	0x3e07443d	0.13209625
215	0xbdf53053	-0.11972108
216	0x3e2e41ee	0.17017338
217	0x3d4100c9	0.04711989
218	0x3db87758	0.09007138
219	0x3d588436	0.05286046
220	0xbde9f475	-0.114235796
221	0xbdb54cb7	-0.08852523
222	0x3dc34006	0.09533696
223	0xbd3bf2b5	-0.04588576
224	0xbd738c75	-0.059460122
225	0xbc32d132	-0.010914134
226	0x3d0c1529	0.034199867
227	0x3dd0f3e9	0.10202772
228	0xbd82618b	-0.06366261
229	0xbd9b66f1	-0.07587994
230	0xbda7e78c	-0.08198461
231	0x3d974b9b	0.073874675
232	0x3e0c10df	0.13678311
233	0x3db007ef	0.08595263
234	0xbdcd70b6	-0.100312635
235	0xbcf22417	-0.029558225
236	0xbd300f70	-0.042983472
237	0xbc69a8a3	-0.0142613975
238	0x3db788de	0.08961652
239	0xbe4cfc1f	-0.20018052
240	0x3df05bec	0.11736283
241	0x3c52bada	0.012861932

net.2.weight f4 [122, 242]
0	0x3c571782	0.013128163
1	0x3c816aa2	0.015797917
2	0x3d57b307	0.05266097
3	0x3cc2f868	0.02380009
4	0x3d0b884c	0.03406553
5	0xbb21028b	-0.0024568166
6	0x3ce9b8bf	0.028530477
7	0xbbb7f213	-0.0056135743
8	0x3d312ebb	0.043257456
9	0xbd469e7a	-0.04849098
10	0x3d7f800e	0.06237798
11	0xbcba82ea	-0.022767503
12	0xbbbdb26a	-0.005789091
13	0xbd38c9be	-0.04511427
14	0xbc58e9dd	-0.013239351
15	0xba56404f	-0.0008173035
16	0xbcd38a98	-0.025822923
17	0x3d280fac	0.04103057
18	0xbd434b25	-0.047679085
19	0xbd32c50a	-0.043644942
20	0x3af3a024	0.0018587154
21	0x3c7d43a2	0.015458019
22	0x3cb72d3a	0.022360433
23	0xbd248ae3	-0.040171515
24	0x3cb98cde	0.022650179
25	0xbcce2a0b	-0.025166532
26	0x3d1c3c4c	0.03814344
27	0x3d0557c4	0.032554403
28	0xbc18e334	-0.009331513
29	0x3d8590ae	0.06521736
30	0xbd92b171	-0.071627505
31	0xbd2b6572	-0.041844793
32	0xbd68b3a6	-0.05681195
33	0xbcf7fd64	-0.030272193
34	0xbd63ae0d	-0.05558591
35	0x3d44f360	0.048083663
36	0xbd1f3713	-0.038870882
37	0xbc9f38df	-0.019436298
38	0xbd640c14	-0.05567558
39	0xbcbec13f	-0.023285506
40	0x3d038ad0	0.032114804
41	0xbd66c5bd	-0.05634092
42	0xbceaf81d	-0.028682763
43	0x3d6370e1	0.05552757
44	0xbd38cd72	-0.045117803
45	0xbd2759bf	-0.040857073
46	0x3d62564b	0.055258077
47	0x3ce612ed	0.028085196
48	0x3d69f050	0.057113945
49	0xbcdf9212	-0.027291331
50	0x3bcc14a5	0.006228047
51	0xbd1ba263	-0.03799666
52	0xbbfc3f18	-0.007697951
53	0x3d0bf9dc	0.03417383
54	0xbb9bf5ed	-0.0047595412
55	0x3c661d8e	0.014045132
56	0xbd31d233	-0.043413352
57	0x3d70987e	0.058739178
58	0x3d31bbbf	0.04339194
59	0x3d1ba174	0.03799577
60	0xbd859366	-0.06522255
61	0x3c823318	0.015893504
62	0x3d4b0b56	0.049571358
63	0x3ac3eb71	0.0014947486
64	0xbd0e34a2	-0.034718163
65	0xbcfc511d	-0.030800397
66	0xbd1dff38	-0.038573474
67	0xbd1e9dfc	-0.038724884
68	0x3d3087d3	0.043098282
69	0x3d61895a	0.05506263
70	0x3c96a8a4	0.018390961
71	0x3d1a8d9a	0.037732698
72	0xbc8e58ad	-0.017376268
73	0x3c2ccdea	0.010547141
74	0xbd229388	-0.039691478
75	0xbcff9a02	-0.031201366
76	0xbc2fbfc4	-0.010726873
77	0x3cd70dc4	0.026251681
78	0xbd1de4b6	-0.038548194
79	0x3ab96f36	0.0014147523
80	0xba996f66	-0.0011706173
81	0x3d14d94c	0.036340043
82	0x3d36f3a6	0.044665955
83	0xbc23690e	-0.009973777
84	0xbca57fcc	-0.02020254
85	0xbd3270ef	-0.043564733
86	0xbc9292fe	-0.017892357
87	0xbb012940	-0.0019708425
88	0x3d3f9794	0.046775416
89	0x3d87a7c0	0.06623793
90	0xbd0edb57	-0.034877148
91	0x3b3a028f	0.0028382873
92	0xbcc2076d	-0.023685182
93	0x3d3faeb8	0.046797484
94	0xb98e88da	-0.00027186313
95	0x3d818b59	0.063254066
96	0xbc7d4af7	-0.015459768
97	0xbd40e2ce	-0.047091298
98	0xbd990ea8	-0.074734986
99	0xbd1af5ac	-0.037831947
100	0x3c4b6245	0.012413566
101	0xbd428b41	-0.047496084
102	0xbd80ea63	-0.06294706
103	0x3ceabdbd	0.028654927
104	0x3d2a218b	0.041535895
105	0xbd726d98	-0.059186548
106	0x3d34ad48	0.044110566
107	0x3d981279	0.074253984
108	0x3cdb313a	0.026756871
109	0xbb8e89ae	-0.004349909
110	0x3d00a825	0.031410355
111	0x3cfcfbe2	0.030881826
112	0xba9064ad	-0.0011016332
113	0x3bfd22fb	0.0077251173
114	0x3d6c93dc	0.057758197
115	0xbbcb4f17	-0.0062044966
116	0xbd64f16f	-0.05589431
117	0xbd501194	-0.050798014
118	0xbd830366	-0.063971326
119	0x3c3ebb0e	0.011641277
120	0x3d5658d2	0.0523308
121	0x3d54cf36	0.051955424
122	0x3d6995b1	0.057027522
123	0xbc82c8cd	-0.01596489
124	0xbd833771	-0.06407059
125	0x3ae06a1b	0.0017121466
126	0xbd27200f	-0.040802058
127	0x3d5285bc	0.05139707
128	0xbcb04e30	-0.021521658
129	0x3be986b3	0.007126653
130	0xbd5b3c6b	-0.053524416
131	0xbb99399f	-0.0046760584
132	0x3d321fbf	0.043487307
133	0xbc760d81	-0.015017868
134	0x3cbf8b59	0.023381876
135	0x3ae09a7f	0.0017135887
136	0x3c868d6b	0.016424855
137	0x3d6cc431	0.05780429
138	0x3d43721a	0.047716238
139	0x3c8b2511	0.016985448
140	0xbc6c8954	-0.014437038
141	0x3d65a7f4	0.056068376
142	0xbd113839	-0.03545401
143	0x3d48a329	0.048983727
144	0x3d1e9f64	0.038726225
145	0x3d513740	0.05107808
146	0x3d3c93b9	0.046039317
147	0x3d5fdc5b	0.054653507
148	0xbc923f4d	-0.01785245
149	0x3d1f6d13	0.03892238
150	0x3d212b16	0.03934773
151	0x3d1042e1	0.03522003
152	0x3c60b08f	0.01371397
153	0xbd4c9314	-0.049944952
154	0x39252248	0.00015748397
155	0x3cf74bd7	0.03018753
156	0xbc9e035f	-0.019288717
157	0x3d8ec39c	0.06970903
158	0xbd59dd04	-0.053189293
159	0x3d78e5e0	0.0607661
160	0x3d54b0aa	0.051926292
161	0xbb16e53a	-0.0023024813
162	0x3d8b851b	0.06812497
163	0xbd913ce6	-0.070916936
164	0xbd695b09	-0.056971584
165	0xbd391b92	-0.04519231
166	0x3cfef6c2	0.031123523
167	0xba202821	-0.00061094953
168	0x3c70a069	0.014686682
169	0xbd0f3eaf	-0.03497189
170	0xbd1f2ce1	-0.03886116
171	0x3d0a6919	0.033791635
172	0x3d390af2	0.045176454
173	0x3d8251e6	0.06363277
174	0x3d534324	0.051577702
175	0x3d75e9e5	0.060037512
176	0xbbd39885	-0.0064573907
177	0xbd6b94be	-0.0575149
178	0x3d562e34	0.052290156
179	0x3ca1f4de	0.019770082
180	0x3c49f602	0.012326719
181	0x3caaf38c	0.020868085
182	0xbd743ac1	-0.059626345
183	0xbc55ecee	-0.013056977
184	0xbd4d70d6	-0.050156437
185	0xbd1adb1e	-0.037806623
186	0x3d5dea83	0.054178726
187	0xbd1941f0	-0.0374164
188	0x3d85144a	0.064980105
189	0xbd2b6a27	-0.04184928
190	0x3a7fa878	0.0009752582
191	0xbd0c68a2	-0.034279473
192	0x3d4442cc	0.047915265
193	0xbc85ff76	-0.016357165
194	0x3c2341a8	0.009964384
195	0x3c39974c	0.011327576
196	0xbd14fe66	-0.036375426
197	0x3b20c85e	0.002453349
198	0x3d133409	0.035938296
199	0xbd9a3a7a	-0.07530685
200	0xbd2caa5e	-0.042154662
201	0x3d4b94cc	0.04970245
202	0xbcde20fb	-0.027115336
203	0xbce4d325	-0.027932713
204	0x3d6446d4	0.05573161
205	0x3ab93ffa	0.0014133446
206	0xbd2de4f1	-0.042454664
207	0x3d6489db	0.05579553
208	0xba86f25d	-0.0010295619
209	0xbd01e98f	-0.03171688
210	0xbca23e3f	-0.019805072
211	0xbd39571e	-0.045249097
212	0x3c2b22cd	0.010445309
213	0x3d67c378	0.056582898
214	0x3d967ecd	0.07348404
215	0x3d0fcf30	0.0351097
216	0x3d092dae	0.03349083
217	0x3ca7b557	0.020472212
218	0x3c79b2fd	0.015240428
219	0xbc1844ee	-0.009293778
220	0x3d2a67ae	0.041602783
221	0x3d57495c	0.052560195
222	0xbc228994	-0.0099204965
223	0x3d71dfcc	0.05905132
224	0xbd2fafeb	-0.042892378
225	0x3d165c33	0.03670902
226	0x3d4c83d3	0.049930405
227	0x3ca6fa95	0.020383159
228	0xbd6c56ec	-0.057700083
229	0xbd6e7b77	-0.058223214
230	0x3cf294f1	0.029612036
231	0x3cb97052	0.022636566
232	0xba38a5d9	-0.0007043756
233	0x3d900e01	0.07033921
234	0x3d273475	0.04082151
235	0x3ccaf901	0.024776937
236	0xbd1fce62	-0.03901518
237	0xbcf803fb	-0.030275336
238	0x3bb90167	0.005645919
239	0xbd882be3	-0.06648996
240	0xb86c88a3	-5.6394038e-05
241	0x3d89eacd	0.06734238
242	0xbd6d0ca1	-0.057873372
243	0x3cc57107	0.024101747
244	0xbc1aa5e3	-0.009438965
245	0xbcd53ded	-0.026030505
246	0xbd111800	-0.03542328
247	0x3d1e1e19	0.038602922
248	0x3d70c2d5	0.058779556
249	0x3af76ec9	0.0018877621
250	0xbd592ef0	-0.05302328
251	0xbcfdb072	-0.030967925
252	0xbb933823	-0.004492776
253	0x3d009dde	0.031400554
254	0xbd991d03	-0.07476237
255	0xbceb976e	-0.02875873

net.2.bias f4 [122]
0	0x3df8a149	0.12140138
1	0x3e1a56fa	0.15072241
2	0xbe1b82e5	-0.15186651
3	0x3db9c8ef	0.09071528
4	0xbe5cfc25	-0.2158056
5	0x3e211c35	0.15733416
6	0x3df59689	0.11991603
7	0x3e09fbf3	0.13475017
8	0x3ddae520	0.106882334
9	0x3da2acdc	0.079431266
10	0xbd805c4a	-0.06267603
11	0xbd758d29	-0.059949074
12	0x3e14ac5f	0.1451888
13	0xbe77a569	-0.24184193
14	0x3db97991	0.0905639
15	0x3e13f410	0.14448571
16	0xbe1b3e70	-0.15160537
17	0xbe008f86	-0.1255475
18	0x3da48437	0.080330305
19	0xbdc4b3d5	-0.09604613
20	0x3d2edef1	0.042693082
21	0x3da6b3e7	0.081397824
22	0x3e01bd12	0.12669781
23	0xbcc66f29	-0.024222927
24	0xbb8c5a03	-0.004283191
25	0x3ccbc218	0.024872825
26	0x3dc4dc34	0.09612313
27	0xbb919ffb	-0.00444412
28	0xbc442a50	-0.011972979
29	0x3d0c2114	0.034211233
30	0x3deafbb0	0.11473787
31	0xbe4a3870	-0.19748092
32	0x3ddaa4ae	0.106759414
33	0x3cfe11e6	0.031014394
34	0x3e572c36	0.21012959
35	0x3e7389bc	0.2378301
36	0xbe14fb27	-0.14548932
37	0x3d630c63	0.055431735
38	0x3bdb97d4	0.006701449
39	0xbe6a30b7	-0.22870146
40	0xbe4517ec	-0.19247407
41	0x3e087f73	0.13329868
42	0xbe279019	-0.16363563
43	0xbdafbcb2	-0.08580913
44	0x3e0fbba9	0.1403643
45	0xbc42c8cc	-0.011888694
46	0xbe39ec57	-0.18156563
47	0xbdbb8afc	-0.091573685
48	0x3ce9e83b	0.028553119
49	0xbdfcea83	-0.12349417
50	0x3d65d409	0.056110416
51	0x3ddd496d	0.108050205
52	0xbe5c1fc6	-0.21496496
53	0xbdf33422	-0.11875178
54	0x3d74ffaa	0.059814133
55	0x3dee1f8a	0.11627109
56	0x3e3d1ee1	0.1846881
57	0xbd9d4d61	-0.076807745
58	0xbd9e8ba9	-0.07741482
59	0x3db17572	0.08664979
60	0xbcdfdaac	-0.02732595
61	0x3e6f9e07	0.23400126
62	0x3d753968	0.0598692
63	0x3ddcbb1e	0.10777877
64	0x3d63be33	0.05560131
65	0x3e4c286f	0.19937299
66	0x3debeb28	0.11519462
67	0x3d0ffb00	0.03515148
68	0x3e435b0b	0.19077699
69	0x3e4ac2ed	0.19800921
70	0x3dd2ad98	0.10287017
71	0xbd2fdf3a	-0.042937495
72	0x3e3a769b	0.18209307
73	0xbd10255a	-0.03519187
74	0xbe0af91e	-0.13571593
75	0xbda61ecb	-0.08111342
76	0xbcad9295	-0.02118806
77	0x3e3634b0	0.17793536
78	0xbdd45b91	-0.103690274
79	0xbe43c918	-0.1911968
80	0x3d43e8f8	0.0478296
81	0x3df03f95	0.11730877
82	0xbbf8b9f4	-0.0075905267
83	0x3e59274a	0.21206394
84	0x3de34379	0.11096854
85	0x3d819158	0.0632655
86	0x3d0d61d8	0.03451714
87	0x3dc9960a	0.09843071
88	0xbd846076	-0.06463711
89	0xbcc66a37	-0.024220569
90	0x3e707134	0.23480684
91	0xbc0b37be	-0.008497177
92	0x3df10689	0.117688246
93	0x3cb439b5	0.022000173
94	0xbe2c7e38	-0.16845024
95	0x3e17e6f1	0.14834191
96	0xbe2350cb	-0.15948789
97	0xbc3054d5	-0.010762413
98	0xbe489421	-0.19587757
99	0x3cf2c7f9	0.02963637
100	0xbc99c961	-0.018772783
101	0x3d85fcd1	0.065423615
102	0xbdd955e8	-0.106120884
103	0x3c24efc3	0.010066929
104	0x3d9ca780	0.076491356
105	0x3d85a690	0.0652591
106	0x3c68e6ee	0.014215214
107	0xbd456bad	-0.04819839
108	0x3e142c72	0.1447008
109	0x3db2a7b0	0.0872339
110	0xbce0eb84	-0.027456053
111	0x3df0a6c3	0.11750557
112	0x3d621ffa	0.055206276
113	0xbe010b1b	-0.12601893
114	0x3c2c04fd	0.010499236
115	0xbe2f48ff	-0.1711769
116	0x3d20fdb2	0.039304443
117	0x3dc8af88	0.09799105
118	0xbddcd4b6	-0.10782759
119	0x3dc45272	0.09586038
120	0x3cd97f10	0.026549846
121	0xbca84c46	-0.020544183

net.4.weight f4 [62, 122]
0	0x3c7b3380	0.015332103
1	0xbcab5467	-0.02091427
2	0xbd55ead9	-0.05222592
3	0xbd21b73b	-0.039481383
4	0xbddbccc0	-0.10732412
5	0x3da0bb37	0.078482084
6	0xbd417c16	-0.04723748
7	0xbd14f259	-0.036363933
8	0x3cbc4ebf	0.022986768
9	0x3d268ab4	0.04065962
10	0xbd9b8764	-0.07594183
11	0x3d415c69	0.04720727
12	0xbb3a0a80	-0.0028387606
13	0xbdbf49fb	-0.093402825
14	0x3d86446e	0.06556021
15	0xbb275f67	-0.0025539042
16	0xbd5ab7d5	-0.053397972
17	0xbdbe4e3f	-0.09292268
18	0x3d9677cb	0.073470674
19	0xbdc25933	-0.0948967
20	0x3d2c78a9	0.042107258
21	0x3c8ac406	0.016939174
22	0x3d0e8542	0.034795053
23	0xbda65e62	-0.08123471
24	0xbc0c0c60	-0.008547872
25	0xbd11946d	-0.03554194
26	0x3ba8164b	0.0051296107
27	0xbd735bf3	-0.05941386
28	0xbda0982b	-0.07841524
29	0x3bd2dfc4	0.0064353663
30	0x3d95b1a9	0.073092766
31	0xbde275bc	-0.11057612
32	0x3d2c742d	0.04210298
33	0x3c597a0b	0.013273726
34	0x3e043ad6	0.12913069
35	0x3dcd5b0e	0.10027133
36	0x3cabd28e	0.020974424
37	0xbd821271	-0.06351174
38	0x3d82ad45	0.06380705
39	0xbdd5f350	-0.10446799
40	0xbe062760	-0.13100958
41	0x3b81bdaf	0.0039593796
42	0xbdb83d0b	-0.08996018
43	0xbd8d56b0	-0.069013
44	0x3d8503cb	0.06494864
45	0x3d5ed42b	0.054401558
46	0xbd5f4d72	-0.054517217
47	0xbdc0fe28	-0.094234765
48	0x3d781332	0.06056518
49	0xbd2b620c	-0.04184155
50	0x3c909d67	0.01765318
51	0x3d4902eb	0.04907505
52	0xbc63753e	-0.013882933
53	0xbd1bfab2	-0.03808088
54	0x3dbe1715	0.09281746
55	0x3dc54473	0.09632196
56	0x3d684f59	0.056716297
57	0x3d3bf0ad	0.045883823
58	0x3c6ce62a	0.014459172
59	0x3c8673a1	0.016412558
60	0x3c48d46b	0.012257676
61	0x3d925d1b	0.07146665
62	0x3dcd61bd	0.10028408
63	0xbd532a7f	-0.0515542
64	0x3b0e1fbc	0.0021686396
65	0xbc132792	-0.008981602
66	0x3dc13792	0.09434427
67	0x3d8575ad	0.065165855
68	0x3da3e55e	0.08002733
69	0x3d907632	0.07053794
70	0x3d60c9ba	0.05487988
71	0xbd140beb	-0.03614418
72	0x3d98cf1d	0.07461379
73	0x3d970be7	0.07375317
74	0xbd2c75bf	-0.04210448
75	0xbda05a4e	-0.07829724
76	0xbc4023ad	-0.011727256
77	0x3d31eba4	0.043437615
78	0xbd726b3c	-0.059184298
79	0xbd74179c	-0.05959283
80	0x3dc1b8dc	0.09459087
81	0x3db351e9	0.087558575
82	0xbd645857	-0.05574831
83	0x3dcd1a98	0.10014838
84	0x3d8a3ecc	0.06750259
85	0x3d9536fe	0.072858796
86	0x3dda1825	0.106491365
87	0x3a59620f	0.0008292505
88	0xbcdae58e	-0.026720788
89	0xbcdd8eb7	-0.02704559
90	0xbc3b7552	-0.011441546
91	0x3d6b8696	0.057501398
92	0x3d18bcf6	0.037289582
93	0x3d566226	0.052339695
94	0xbd14b1d7	-0.036302414
95	0x3dad5af3	0.08464613
96	0xbdd59f14	-0.10430732
97	0xbc78d0d0	-0.0151865035
98	0xbdc2d464	-0.095131665
99	0xbd423495	-0.047413427
100	0xbd093dbe	-0.033506148
101	0xbcacdc62	-0.02110118
102	0xbc3943a8	-0.011307634
103	0x3b2e5192	0.0026598913
104	0x3d6438df	0.0557183
105	0x3ce7a2eb	0.028275928
106	0xbcdb4aa1	-0.026768984
107	0xbd8a6670	-0.0675782
108	0x3d71de07	0.059049632
109	0x3db56784	0.08857635
110	0x3ce33bc1	0.027738454
111	0x3d42df05	0.04757597
112	0x3db71b74	0.08940783
113	0x3d018752	0.031623192
114	0x3dba7813	0.091049336
115	0xbd80a2d1	-0.06281055
116	0x3d96c855	0.07362429
117	0x3daff818	0.08592242
118	0xbdb02d34	-0.08602372
119	0xbc4f4a26	-0.012651956
120	0xbc62693c	-0.013819035
121	0xbd7019ec	-0.05861847
122	0xbd915563	-0.07096364
123	0x3d45505e	0.048172347
124	0xbce511a7	-0.027962519
125	0x3c60339b	0.013684179
126	0x3cfb386d	0.030666554
127	0x3d7e785c	0.062126502
128	0x3d35eac1	0.044413332
129	0xbd824118	-0.06360072
130	0xbcec4e41	-0.028845908
131	0xbd59536e	-0.05305808
132	0x3d01612e	0.03158682
133	0x3d834567	0.06409722
134	0x3db8a00b	0.09014901
135	0xbda558fe	-0.080736145
136	0x3d9d051d	0.07666991
137	0x3d966733	0.073439024
138	0x3d2fe99d	0.0429474
139	0xbbe99dc3	-0.0071294024
140	0xbc9e1fa0	-0.01930219
141	0x3da38bee	0.07985674
142	0xbd45ec95	-0.048321325
143	0xbd6ad670	-0.05733341
144	0xbd412f4f	-0.047164258
145	0x3b36d717	0.00278992
146	0xbd011147	-0.031510618
147	0xbd26a4d5	-0.04068454
148	0x3d8e67d2	0.06953396
149	0xbda4703c	-0.080292195
150	0x3dac2bf5	0.08406822
151	0x3cd94f41	0.026527049
152	0x3dd33e98	0.10314673
153	0x3d8d7f11	0.069090016
154	0xbc9f276a	-0.019427974
155	0xbd50597c	-0.05086659
156	0xbd860474	-0.06543818
157	0x3d358d37	0.044324126
158	0xbc62f990	-0.013853446
159	0xbd8a8e49	-0.0676542
160	0x3da10aa3	0.07863357
161	0xbd60d2d4	-0.05488856
162	0xbd0d33ef	-0.034473356
163	0x3d81470f	0.063123815
164	0xbd37bcfa	-0.044857956
165	0xbd2d6532	-0.042332835
166	0xbd2ea88c	-0.042641208
167	0x3d018cdd	0.03162848
168	0xbd92d0d1	-0.07168735
169	0x3c812b71	0.015767785
170	0xbd449a48	-0.047998697
171	0xbd5e876b	-0.054328363
172	0xbd7ec762	-0.062201865
173	0xbd5a4bcf	-0.053294953
174	0xbdd518a5	-0.10405091
175	0x3d19491d	0.037423242
176	0xbd43a870	-0.047768056
177	0xbd7fcc22	-0.062450536
178	0x3d820afe	0.06349753
179	0x3d3e4040	0.046447992
180	0x3d51ec91	0.051250998
181	0xbd7d3d01	-0.061825756
182	0xbdb172a4	-0.08664444
183	0xbd2faa7b	-0.042887192
184	0xbd4ce850	-0.050026238
185	0xbbed8b22	-0.007249252
186	0xbba6f038	-0.0050945543
187	0x3dab2d1a	0.08358212
188	0xbd79b2cd	-0.060961533
189	0xbbbcc722	-0.005761043
190	0xbd3fe7c8	-0.046851903
191	0x3b302cff	0.0026882289
192	0x3d9d69c5	0.076861896
193	0xbd6e23fb	-0.058139782
194	0x3c2fcb37	0.010729603
195	0xbd0d22b7	-0.034456935
196	0x3cae9a09	0.021313684
197	0xbc94adfd	-0.01814937
198	0x3d666538	0.056248873
199	0xbd5771c7	-0.05259874
200	0x3d0f5c91	0.035000388
201	0x3d40cbf2	0.047069497
202	0x3d95760f	0.072979085
203	0x3d199375	0.03749414
204	0xba9e3448	-0.0012070024
205	0xbd2c98d8	-0.04213795
206	0xbc36df0c	-0.011161577
207	0x3da6f5b5	0.08152334
208	0xbd5f5c20	-0.054531217
209	0xbd564734	-0.052314
210	0x3c664b0c	0.0140559785
211	0x3d9a9064	0.075470716
212	0x3c45cd37	0.012072853
213	0xbda273a7	-0.07932215
214	0xbd060729	-0.032721672
215	0x3d4112b4	0.047136977
216	0x3d231fb1	0.039825145
217	0x3b586ece	0.003302503
218	0xbd552dd0	-0.052045643
219	0xbd978a4c	-0.07399425
220	0x3d943f49	0.07238633
221	0xbd3a6a0e	-0.045511298
222	0x3d2a3eae	0.041563682
223	0xbc91bf7d	-0.017791504
224	0xbd7aa9b6	-0.061197005
225	0x3d9d6908	0.07686049
226	0xbd56dc93	-0.05245645
227	0xbd14cad5	-0.03632625
228	0x3dadf4c8	0.08493954
229	0xbd81cc7f	-0.06337833
230	0x3d5f1388	0.054461986
231	0xbd91669d	-0.0709965
232	0x3b1d696a	0.002401913
233	0xbb5d2e4a	-0.0033749514
234	0x3c247e5b	0.010039891
235	0xbd202518	-0.039097875
236	0x3c4cba02	0.01249552
237	0xbd7e32b5	-0.062060077
238	0x3da49c82	0.08037664
239	0x3a892d8f	0.0010465848
240	0xbdc1cc77	-0.09462827
241	0xbc9a7856	-0.018856209
242	0xbd381c72	-0.044949003
243	0x3d379777	0.044822183
244	0x3daf8d06	0.0857182
245	0x3dc8ebef	0.09810626
246	0xbda16c94	-0.07882038
247	0x3d20c8b1	0.039253894
248	0xbdb000cf	-0.08593904
249	0x3ade3e72	0.0016955866
250	0x3d9562ee	0.0729426
251	0xbbafbdf8	-0.005363222
252	0xbd6d8a17	-0.05799302
253	0x3db55a0b	0.08855065
254	0x3c7a651c	0.015282895
255	0x3c969062	0.018379394

net.4.bias f4 [62]
0	0x3e2b08b9	0.16702546
1	0x3a9324a5	0.0011226131
2	0xbca2e381	-0.019883873
3	0xbe0a1cbe	-0.13487527
4	0x3d88baff	0.06676292
5	0xbe13d145	-0.14435299
6	0x3e759c75	0.23985465
7	0xbe7226c3	-0.23647599
8	0xbdea59af	-0.11442887
9	0xbd4f49e8	-0.050607592
10	0x3e75ba55	0.23996861
11	0x3e370aeb	0.17875259
12	0xbd7f1608	-0.06227687
13	0x3d607a7d	0.054804314
14	0x3d75bd64	0.05999507
15	0x3df85584	0.12125686
16	0x3df27421	0.11838556
17	0xbdf18eb0	-0.117947936
18	0x3e301d9b	0.17198794
19	0x3c4b38fb	0.012403722
20	0xbd8065f9	-0.0626945
21	0xbe44f497	-0.19233929
22	0xbd39932c	-0.04530637
23	0x3e637278	0.22211635
24	0x3c05dbf4	0.008170117
25	0xbdd84912	-0.10560812
26	0x3e38f47f	0.18062018
27	0x3ca6d2fd	0.020364279
28	0x3c8418fb	0.016125193
29	0xbe11598d	-0.14194317
30	0xbdda25af	-0.10651719
31	0x3adfa77a	0.0017063462
32	0x3d6f1876	0.058372937
33	0xbd8edd81	-0.06975842
34	0xbe589759	-0.21151485
35	0x3e16c83e	0.14724824
36	0x3db75248	0.08951241
37	0x3d65621b	0.056001764
38	0x3debf299	0.11520881
39	0x3d068ac9	0.0328472
40	0xbe3aa13d	-0.1822557
41	0x3d0a02e6	0.03369417
42	0xbe1ded39	-0.15422525
43	0xbe342e20	-0.1759572
44	0xbdd7153d	-0.10502098
45	0x3dd807ea	0.105483845
46	0xbe852555	-0.26005045
47	0x3d8eb489	0.06968028
48	0x3cd23d26	0.025663923
49	0x3c8c94ca	0.017160792
50	0xbdea679a	-0.11445542
51	0x3e0d51bc	0.1380071
52	0x3d99a61e	0.075023875
53	0x3d066097	0.03280696
54	0xbd90ba8b	-0.0706683
55	0xbccbe13d	-0.024887675
56	0x3d8d6fee	0.069061145
57	0x3e5c169b	0.21492998
58	0xbe0e0bb2	-0.13871649
59	0x3df28697	0.11842077
60	0xbe3c1c66	-0.18370208
61	0x3de1837b	0.11011406

net.6.weight f4 [18, 62]
0	0xbe485390	-0.19563127
1	0xbc9139f5	-0.017727831
2	0x3b15f663	0.0022882454
3	0x3e369e4e	0.17833826
4	0xbdb21604	-0.086956054
5	0x3c3faf36	0.011699488
6	0xbde5683f	-0.11201524
7	0x3de170cd	0.11007843
8	0x3de6f70b	0.112775885
9	0x3d9a9fa6	0.07549982
10	0xbdb29715	-0.08720223
11	0x3c327929	0.010893145
12	0x3c73f2d8	0.014889441
13	0x3cab3b3d	0.02090227
14	0x3d1a37c6	0.037650846
15	0x3da7b526	0.08188848
16	0xbdd929d3	-0.106036805
17	0x3b6e7a47	0.00363888
18	0xbd5fd17f	-0.05464315
19	0xbcdd81d6	-0.02703945
20	0x3e1137ff	0.14181517
21	0x3dac47cc	0.08412132
22	0xbdbfa7c1	-0.093581684
23	0xbd979d86	-0.07403092
24	0x3da87aca	0.08226545
25	0x3d81e700	0.06342888
26	0xbd2e8c2a	-0.04261414
27	0xbd9e45fb	-0.077281915
28	0xbd4f9e78	-0.050688237
29	0x3da22afb	0.07918354
30	0x3dbf5b6e	0.09343611
31	0x3deea5d6	0.116527244
32	0xbd7c9f73	-0.0616755
33	0x3dbcd0ba	0.09219499
34	0x3e29884d	0.16555901
35	0x3c50ab85	0.012736206
36	0xbdb251ba	-0.08706994
37	0xbc71cadc	-0.014757838
38	0xbb20262f	-0.0024436822
39	0xbcd9b75a	-0.026576687
40	0x3d24fb34	0.04027863
41	0x3dbb9351	0.09158958
42	0x3e1e21de	0.15442607
43	0x38cb769a	9.7018856e-05
44	0x3da86594	0.082224995
45	0xbe04aa3f	-0.12955569
46	0x3e1b2f3e	0.1515474
47	0xbdc1d8d4	-0.09465185
48	0x3db12e02	0.086513534
49	0xbda41be6	-0.08013134
50	0x3d41869d	0.047247518
51	0xbdf19b75	-0.11797229
52	0x3c9c55bc	0.01908385
53	0x3d0748ef	0.03302854
54	0x3c29dd2a	0.010367671
55	0x3da3c383	0.07996275
56	0xbd634772	-0.055488057
57	0xba5af511	-0.0008352558
58	0xbcb0e449	-0.02159323
59	0xbdbeca03	-0.093158744
60	0x3e04678f	0.1293013
61	0x3dc246ae	0.09486137
62	0x3d129c1c	0.03579341
63	0xbdd0eb65	-0.10201148
64	0x3dd38e3d	0.10329864
65	0x3e2e120f	0.16999076
66	0xbd7bac49	-0.0614436
67	0x3dd64951	0.10463203
68	0xbe104d20	-0.14091921
69	0x3dcc394c	0.09971866
70	0xbd55cbba	-0.052196242
71	0x3d548082	0.051880367
72	0xbd765f99	-0.060149763
73	0xbb768102	-0.0037613516
74	0x3c154ab5	0.00911205
75	0xbe0e004a	-0.13867298
76	0xbdefaa5f	-0.117024176
77	0xbd6deb8f	-0.058085974
78	0xbd8cb8d7	-0.06871193
79	0x3e2fe963	0.17178874
80	0xbe1cc7f6	-0.15310654
81	0xbd3521fd	-0.044221867
82	0xbd581c01	-0.05276108
83	0x3e1400df	0.14453457
84	0x3e041c23	0.12901358
85	0xbdef6902	-0.116899505
86	0xbdce36ae	-0.10069023
87	0xbcaa8ef1	-0.020820113
88	0xbd8c15a9	-0.06840069
89	0xbd0e33d0	-0.03471738
90	0x3d4174ed	0.04723065
91	0x3d17d484	0.037067905
92	0x3c80f54f	0.015741972
93	0x3d4bdcd4	0.049771145
94	0xbd719166	-0.058976553
95	0x3da5b018	0.08090228
96	0xbc1c7a6b	-0.009550671
97	0xbe1f7fa2	-0.15576032
98	0xbe22ffc2	-0.15917876
99	0x3c85d540	0.016337037
100	0x3da16263	0.07880094
101	0xbe27cd71	-0.16386963
102	0x3d42e095	0.04757746
103	0xbd887798	-0.06663436
104	0xba5a7fc1	-0.0008335077
105	0x3c32088a	0.010866294
106	0x3e20b32d	0.1569335
107	0x3d3f341d	0.04668056
108	0x3d249397	0.040179815
109	0xbda5d6da	-0.0809762
110	0x3d08af1a	0.033370115
111	0xbda4d391	-0.080481656
112	0xbb8d1025	-0.004304903
113	0xbe1cb037	-0.15301596
114	0x3cd55eeb	0.026046237
115	0xbd53dc73	-0.05172391
116	0xbd5cbc6e	-0.053890638
117	0xbcb77d89	-0.022398727
118	0xbdfbd5ea	-0.1229666
119	0xbe46d1c2	-0.19415954
120	0x3ddcb34a	0.10776384
121	0xbe304646	-0.17214307
122	0x3babf210	0.005247362
123	0x3d5e2630	0.054235637
124	0xbd98d2be	-0.07462071
125	0xbdc0e599	-0.09418792
126	0x3cf27ada	0.029599596
127	0x3e3e1e18	0.18566167
128	0xbcc94f47	-0.024573935
129	0x3e2598b0	0.16171527
130	0xbd6e8998	-0.05823669
131	0x3e11d43b	0.14241116
132	0x3db2264e	0.08698712
133	0x3e25696e	0.161535
134	0xbe04e93c	-0.12979597
135	0xbded6776	-0.11591999
136	0x3c814309	0.015779035
137	0xbdc2b07d	-0.09506319
138	0xbdbcf61a	-0.09226628
139	0x3ceeec3e	0.029165383
140	0x3d180174	0.03711076
141	0x3d8cfd58	0.06884259
142	0xbe1f6138	-0.1556443
143	0xbdcdb436	-0.10044138
144	0xbd1d47da	-0.0383986
145	0x3da628c1	0.08113242
146	0x3dad757b	0.08469673
147	0xbe05fbdd	-0.1308436
148	0x3d909001	0.070587166
149	0x3e0e5d9d	0.13902898
150	0xbd07ea3f	-0.03318238
151	0x3d99ba02	0.07506181
152	0xbd5cd66d	-0.05391543
153	0x3ddf69fd	0.109088875
154	0x3e2371ee	0.1596143
155	0x3da9802a	0.082763985
156	0xbbdcaf31	-0.0067347516
157	0xbdc120b7	-0.09430068
158	0xbd3a12ca	-0.045428075
159	0xbe0d8859	-0.13821544
160	0xb9976218	-0.0002887405
161	0x3c8951c3	0.01676262
162	0xbd0667da	-0.032813884
163	0xbd58aa58	-0.052896827
164	0x3dd49005	0.10379032
165	0xbcb1a791	-0.021686347
166	0x3dae5f5f	0.08514284
167	0x3c1b79ec	0.009489518
168	0x3ccca1d5	0.024979511
169	0xbd2552cb	-0.04036216
170	0x3e3ffbd3	0.18748407
171	0x3cedeb34	0.029042818
172	0xbc8edb5f	-0.017438589
173	0x3d143f08	0.036192924
174	0xbd812e5f	-0.06307673
175	0x3cdb710f	0.026787309
176	0xbcb22a92	-0.021748815
177	0x3d8840c9	0.06652982
178	0x3ddf4c15	0.10903183
179	0x3c82e7a6	0.0159796
180	0x3d612f13	0.054976534
181	0xbc5571c3	-0.013027611
182	0xbd32a715	-0.043616373
183	0xbd1e58fe	-0.03865909
184	0x3e3e7f79	0.18603314
185	0x3ca4b291	0.020104678
186	0xbcd37d51	-0.025816591
187	0xbdcccc44	-0.09999898
188	0x3dc99ecd	0.09844742
189	0xbd6e2275	-0.05813833
190	0x3cc3566f	0.023844926
191	0x3dea0e25	0.11428479
192	0xbe118a05	-0.14212807
193	0x3dee7a11	0.11644376
194	0x3db976e9	0.090558834
195	0x3d50795f	0.050897
196	0xbe3b581a	-0.18295327
197	0xbdb34b83	-0.08754637
198	0x3d4cfab8	0.05004379
199	0xbdd80284	-0.10547355
200	0x3d47ba8e	0.048761897
201	0x3ce0b2ab	0.027428946
202	0xbd04f1a5	-0.032457013
203	0x3e18f09e	0.14935538
204	0xbd6da2a7	-0.058016445
205	0xbd12e925	-0.035866875
206	0x3e07d466	0.13264617
207	0xbd0cefd5	-0.03440841
208	0xbdd307e1	-0.10304237
209	0xbe4b2233	-0.19837265
210	0x3c949ee7	0.018142177
211	0x3e11f82d	0.14254828
212	0x3d32dcd5	0.043667633
213	0x3d7b3c5f	0.06133687
214	0x3daa568e	0.0831729
215	0x3d99d704	0.07511714
216	0x3dd3372b	0.10313257
217	0x3c91a12b	0.017777046
218	0xbdcb002b	-0.099121414
219	0xbd94e5df	-0.07270407
220	0x3e264b34	0.16239625
221	0xbe2122c4	-0.15735918
222	0x3d8e0b13	0.06935706
223	0xbd30d9b6	-0.043176375
224	0x3d2306f1	0.03980154
225	0x3d756870	0.059914052
226	0x3e0e1ff1	0.13879372
227	0x3d2be0c7	0.04196241
228	0x3dd1ab48	0.102377474
229	0x3e0ef7be	0.13961694
230	0xbd840ff9	-0.06448359
231	0x3cc11454	0.023569264
232	0x3e102fce	0.14080736
233	0xbe278a01	-0.16361238
234	0x3d8fce79	0.070218034
235	0xbda9a3b9	-0.08283181
236	0xbd3eb44c	-0.046558663
237	0xbdce0ad2	-0.100606576
238	0xbda0fc55	-0.078606285
239	0x3d853cc3	0.0650573
240	0x3de075ba	0.109599546
241	0x3d173e09	0.036924396
242	0x3da0568b	0.07829007
243	0xbdca5019	-0.09878559
244	0x3e10b628	0.14131987
245	0xbded18c9	-0.11576993
246	0x3e1985f1	0.14992501
247	0x3d8f8a78	0.07008833
248	0xbe3baed1	-0.18328406
249	0x3d517446	0.051136278
250	0xbcd5b757	-0.0260884
251	0x3d15cfc7	0.036575105
252	0x3d26cf1c	0.04072486
253	0x3ddb5b3e	0.107107624
254	0xbe424382	-0.18971065
255	0x3ca90df4	0.020636536

net.6.bias f4 [18]
0	0xbe902620	-0.28154087
1	0xbe68e362	-0.2274299
2	0xbe87e67e	-0.2654304
3	0xbddf57c9	-0.109054156
4	0xbe805c11	-0.2507024
5	0xbe851009	-0.25988796
6	0xbe95744f	-0.291903
7	0xbe94e444	-0.29080403
8	0xbe1d4d3e	-0.15361497
9	0xbe5c74cc	-0.2152893
10	0xbe50ad14	-0.20378524
11	0xbe1e618f	-0.15466903
12	0xbe768876	-0.24075493
13	0xbe85ac14	-0.26107848
14	0xbe795d7e	-0.2435207
15	0xbdc096af	-0.094037406
16	0xbe0e6ff4	-0.13909894
17	0xbe115888	-0.14193928
