models/BAN1.ckpt (torch, 630667 bytes, 8 tensors)

net.0.weight f4 [242, 486]
0.030730432 0.029064799 -0.011029902 -0.0061555225 -0.038255613 0.029596852 0.03784021 0.0049900096
-0.0020916187 0.029506328 0.007284342 -0.004069234 0.031838305 0.0004119518 0.032160778 -0.028773654
-0.024845412 -0.030897012 -0.038605217 -0.0062356 -0.010077422 0.009626808 -0.012618781 -0.029364044
-0.018665642 -0.045309894 0.007830708 0.009317824 0.009926082 0.03577157 0.017739471 -0.012237753
-0.03866968 0.028239494 -0.026191914 -0.025448054 0.018867658 0.006244772 -0.009784279 -0.036160093
0.004285542 0.035947155 -0.030025741 -0.036791146 -0.044772834 0.03044415 0.0053293672 0.011799963
-0.040781986 0.03787023 0.027886052 -0.03789268 -0.034841694 -0.009442064 0.029397877 0.024582146
-0.01253429 -0.023754392 -0.040385123 0.011529943 0.004964833 -0.030937549 0.017768195 0.0013690725
-0.03584445 0.036902286 0.03977839 -0.0058837594 -0.045439314 -0.026889352 0.017245997 -0.023334803
-0.022364717 -0.025397198 0.03827096 0.023394134 0.00676251 0.0064408043 0.001609604 -0.028436262
0.009628226 0.0010400319 0.0054388037 -0.03271511 0.007949255 -0.024875132 -0.029655961 0.0035709117
-0.03797767 -0.0010346654 0.0060576554 -0.022254227 -0.023210831 -0.0012350417 0.03126845 -0.0018337847
-0.031317316 0.0030511902 -0.00033051174 -0.020530183 -0.04250412 -0.03724625 -0.029819863 0.018113427
-0.008950625 0.039817 -0.006062269 0.0385339 -0.003586359 0.041117772 0.020133099 0.029907
0.015464067 -0.038623564 -0.03765604 -0.011755065 0.008269912 0.014686911 0.005880681 -0.010210162
0.0020942863 -0.0032986563 0.023228444 -0.00010506582 -0.03196449 -0.0092159705 -0.01707839 -0.004919962
0.033943374 0.03916843 0.0015432581 -0.013158603 0.003266596 -0.027417531 0.03496096 -0.03941495
-0.0013370896 -0.027970864 -0.02594212 0.030614475 -0.00857838 0.030881941 0.0061484114 0.030686561
-0.03600607 -0.026124863 0.039705 -0.021019287 -0.039569896 -0.04518286 0.026051583 -0.013672261
0.03747872 0.015598576 -0.046200737 -0.03131909 -0.010110505 -0.004360062 0.0021032095 -0.013984511
0.032784216 -0.01261736 -0.0040775617 -0.019406939 0.03681124 0.027068172 -0.04378829 -0.044731412
0.01649729 -0.028170038 -0.019663677 0.03955431 -0.021295175 0.0340423 -0.03388468 -0.02859478
-0.03468914 0.013030298 0.017380118 0.030704513 -0.006557982 -0.0071751648 -0.035820886 -0.016413003
-0.033063352 -0.040270757 -0.0018434448 0.027643912 -0.011244837 -0.0077182837 -0.027287683 -0.038045045
0.016765071 -0.044316996 -0.045343827 -0.02326587 0.032077894 -0.04081556 0.030074092 0.007827994
-0.023899505 0.041702505 -0.019230485 -0.042646863 -0.022240542 -0.007873643 -0.022181792 -0.040123157
0.0156595 -0.019673772 -0.0080957655 0.028544975 0.041324593 -0.00412146 0.0423897 0.020611946
0.038962964 0.03218518 -0.0331434 0.021439115 -0.008639283 0.024101801 -0.011171542 0.023873042
-0.03313139 -0.0051385537 0.0062085986 -0.023542468 0.004418625 -0.046488173 0.010205009 -0.030367594
-0.012096286 -0.04462402 0.036082465 0.018274413 -0.046047304 0.008114057 0.0014432478 0.032761563
-0.018481996 -0.007495826 -0.029951017 0.035860766 0.03850098 0.034027383 0.009424306 0.023229675
0.0019295621 0.0010728638 0.015938357 0.02774941 0.012440372 0.036554832 -0.029264305 0.027492099
00000000: 63be fb3c 4d19 ee3c c3b6 34bc 44b4 c9bb
00000010: ebb1 1cbd 1975 f23c 56fe 1a3d 3c83 a33b
00000020: 8a13 09bb 41b7 f13c 7db1 ee3b 3557 85bb
00000030: e268 023d 3cfb d739 05bb 033d bab6 ebbc
00000040: 9b88 cbbc bb1b fdbc 8120 1ebd 0154 ccbb
00000050: c51b 25bc c2b9 1d3c 01bf 4ebc dd8c f0bc
00000060: b0e8 98bc de96 39bd 5f4c 003c c9a9 183c
00000070: 01a1 223c 3685 123d 5e52 913c db80 48bc
00000080: 1964 1ebd 8356 e73c 6d90 d6bc 7078 d0bc
00000090: 5990 9a3c f2a0 cc3b 3e4e 20bc 9b1c 14bd
000000a0: bb6d 8c3b 533d 133d 8bf8 f5bc 50b2 16bd
000000b0: b863 37bd 0366 f93c f9a1 ae3b a254 413c
000000c0: 030b 27bd d01d 1b3d 4a71 e43c 5b35 1bbd
000000d0: 2ab6 0ebd e3b2 1abc d1d3 f03c 7f60 c93c
000000e0: 9f5c 4dbc 9298 c2bc df6a 25bd 16e8 3c3c
000000f0: 0ab0 a23b be70 fdbc 9b8e 913c 7372 b33a
00000100: a1d1 12bd da26 173d aaee 223d 8dcc c0bb
00000110: 931e 3abd 0f47 dcbc 7a47 8d3c a128 bfbc
00000120: 3636 b7bc c90d d0bc 03c2 1c3d 0ea5 bf3c
00000130: 0c98 dd3b 620d d33b 59f9 d23a 2af3 e8bc
00000140: b5bf 1d3c ae51 883a fe37 b23b 4700 06bd
00000150: 983d 023c efc6 cbbc 0ff1 f2bc f505 6a3b
00000160: 798e 1bbd 9c9d 87ba 4c7f c63b 7f4e b6bc
00000170: a424 bebc 1fe1 a1ba 5913 003d 9b5b f0ba
00000180: 9646 00bd 7af6 473b 8948 adb9 ea2e a8bc
00000190: cd18 2ebd 868f 18bd c948 f4bc 9c62 943c
000001a0: a4a5 12bc 2717 233d 00a6 c6bb b9d5 1d3d
000001b0: 1f09 6bbb 1c6b 283d 2bee a43c 86ff f43c
000001c0: 005d 7d3c be33 1ebd 383d 1abd 5198 40bc
000001d0: 867e 073c 5fa1 703c bab2 c03b 8648 27bc
000001e0: 4b40 093b 452e 58bb 9449 be3c c856 dcb8
000001f0: 32ed 02bd 95fe 16bc fbe7 8bbc a237 a1bb
00000200: 3508 0b3d 136f 203d 2647 ca3a 2e97 57bc
00000210: 6314 563b bb9a e0bc 3933 0f3d 9271 21bd
00000220: 4841 afba 2723 e5bc 9284 d4bc 35cb fa3c
00000230: 558c 0cbc 20fc fc3c 9d78 c93b 6262 fb3c
00000240: 1a7b 13bd cf03 d6bc b6a1 223d a430 acbc
00000250: 0b14 22bd aa11 39bd 216a d53c 9e01 60bc
00000260: 4983 193d 2b91 7f3c fc3c 3dbd 7248 00bd
00000270: 88a6 25bc dade 8ebb 00d6 093b 4a1f 65bc
00000280: be48 063d 0bb9 4ebc 119d 85bb 4dfb 9ebc
00000290: 62c7 163d 12be dd3c 5a5b 33bd 4938 37bd
000002a0: 5325 873c dac4 e6bc b815 a1bc b303 223d
000002b0: 3873 aebc f06f 0b3d aaca 0abd 9a3f eabc
000002c0: 3316 0ebd 087d 553c c060 8e3c 0888 fb3c
000002d0: 57e4 d6bb a51d ebbb ecb8 12bd 9074 86bc
000002e0: 706d 07bd f3f2 24bd be9f f1ba 7c75 e23c
000002f0: 443c 38bc a8e9 fcbb 6b8a dfbc 1fd5 1bbd
00000300: e756 893c bd85 35bd 73ba 39bd 1198 bebc
00000310: 1c64 033d 372e 27bd f15d f63c fd40 003c
00000320: e5c8 c3bc 3fd0 2a3d 4089 9dbc 7aae 2ebd
00000330: cc31 b6bc 7400 01bc 97b6 b5bc 2e58 24bd
00000340: 5a48 803c e42a a1bc 1aa4 04bc 27d7 e93c
00000350: fa43 293d 500d 87bb d2a0 2d3d 62da a83c
00000360: a197 1f3d 9bd4 033d 60c1 07bd 15a1 af3c
00000370: c78b 0dbc 2471 c53c d808 37bc 6691 c33c
00000380: c8b4 07bd 5061 a8bb 8071 cb3b 22dc c0bc
00000390: 1dca 903b 626a 3ebd e932 273c 76c5 f8bc
000003a0: 802f 46bc adc7 36bd 35cb 133d 39b4 953c
000003b0: 199c 3cbd d2f0 043c 5c2b bd3a fd30 063d
000003c0: 8e67 97bc 8c9f f5bb d65b f5bc bde2 123d
000003d0: 34b3 1d3d 4c60 0b3d 6868 1a3c 294c be3c
000003e0: 5ce9 fc3a 569f 8c3a 2891 823c bb52 e33c
000003f0: b4d2 4b3c 85ba 153d b2bb efbc 1c37 e13c

net.0.bias f4 [242]
-0.07651219 -0.011395322 -0.056619167 0.08740675 -0.044244923 0.05922587 0.029309785 -0.05342487
-0.06543919 -0.0620079 0.23594064 0.2246888 0.11889175 -0.12281756 -0.015500433 0.04567199
-0.0885797 -0.07110854 -0.027511252 0.06769362 0.11172882 -0.108626254 -0.025927708 0.10029021
0.07761132 -0.2125767 -0.25422508 0.0581709 -0.02921924 0.035902116 0.0034419382 0.013648573
-0.00035054362 0.059169777 -0.077082776 -0.073813304 -0.14948325 0.026003104 0.017709373 -0.009296223
0.1895305 0.12712672 -0.20154633 -0.16284695 0.11302265 -0.08171896 -0.0042442493 -0.19091925
0.1412709 -0.05618172 0.020234406 0.14660905 -0.009902021 0.104954295 0.021363903 0.039658226
-0.11350131 0.06732788 -0.04653962 -0.069299534 -0.019756172 -0.022585722 0.052057162 0.11586123
0.14444852 0.16048592 -0.19133848 -0.10394902 0.25714397 0.07352135 -0.019818008 0.18120964
0.07739423 -0.020428324 0.02678757 0.08113417 -0.05452354 -0.031398278 -0.041075844 0.09521425
0.05231626 -0.14060555 -0.10308754 -0.060564358 0.0021165085 0.050501168 -0.14047982 -0.106438234
-0.24385886 -0.15857099 -0.000970343 -0.086223 0.08028709 0.063961126 -0.01861086 -0.07257465
0.00020766068 -0.13991888 -0.077535674 -0.24519019 -0.16840011 -0.17615154 -0.0014945335 0.04779592
-0.17203237 -0.18565121 0.0025161358 0.13670251 -0.19531704 -0.15252246 0.028284753 0.13347442
0.12803267 -0.18430082 -0.12629488 -0.07149597 0.11476474 0.012727845 0.011014201 -0.07386103
0.08322243 -0.23077728 -0.046346273 0.08297285 -0.10866503 -0.21207364 0.039103325 -0.004513515
0.08673558 -0.03870309 -0.030327762 -0.1024293 -0.11098315 -0.1383995 -0.19732009 0.08235295
0.008114921 0.10032955 0.04468383 0.10284194 0.06821082 -0.037083406 -0.25032973 0.124464355
0.0357443 -0.002225556 0.14949536 0.14703919 -0.08811932 -0.033428926 -0.044192884 -0.03664876
-0.12388934 -0.07128785 0.082002416 -0.11649188 0.059942108 -0.01633754 -0.0034552698 0.0648153
-0.046725478 -0.06956638 -0.13427049 0.09828547 0.039122928 -0.06467886 -0.10479557 -0.09471666
0.045534544 0.07372425 -0.095551915 0.10015061 -0.10013933 0.16415478 -0.07599528 0.17847149
-0.0025127481 0.05001102 0.23357019 -0.06707989 0.13411032 -0.0019668916 -0.11526697 0.08514811
0.1059079 0.03372966 -0.15742277 0.120367035 0.12666653 -0.24095824 -0.010623762 -0.10083158
-0.13452454 0.06910582 -0.056773365 -0.15262985 -0.13602993 -0.07390666 0.042598903 0.07749366
-0.05881468 -0.104722746 0.08409059 -0.010306607 -0.04661255 -0.09705949 -0.06956358 -0.16363546
-0.114414 0.18546662 -0.15166052 0.133571 -0.093909435 0.27148855 0.0023741962 -0.0058225747
0.09640909 0.033726983 -0.12664999 0.12805133 -0.21417052 -0.0055328724 -0.055158574 -0.0979735
0.10819811 0.0054532234 0.048373092 -0.14834581 -0.007901064 -0.17715602 -0.033584017 -0.03346989
-0.19418372 -0.053821363 -0.12650357 -0.20146897 -0.028869152 0.028604794 0.14232957 -0.028512256
0.14707516 -0.019579576
00000000: 6cb2 9cbd 72b3 3abc 80e9 67bd 4f02 b33d
00000010: 2a3a 35bd d396 723d 131b f03c 09d4 5abd
00000020: fb04 86bd fffb 7dbd 6c9a 713e d214 663e
00000030: 857d f33d c687 fbbd 87f5 7dbc 8d12 3b3d
00000040: 4669 b5bd 5ba1 91bd 475f e1bc f4a2 8a3d
00000050: 14d2 e43d 7177 debd 5866 d4bc f464 cd3d
00000060: aff2 9e3d b5ad 59be ca29 82be 9c44 6e3d
00000070: 305d efbc 190e 133d 2492 613b 449e 5f3c
00000080: 2bc9 b7b9 025c 723d 93dd 9dbd 6e2b 97bd
00000090: 2312 19be 7604 d53c 3f13 913c 2f4f 18bc
000000a0: 4914 423e 822d 023e 2962 4ebe 5ac1 26be
000000b0: 6b78 e73d 455c a7bd 5813 8bbb 5680 43be
000000c0: 52a9 103e ce1e 66bd a0c2 a53c af20 163e
000000d0: 163c 22bc 47f2 d63d 5a03 af3c aa70 223d
000000e0: 6073 e8bd 33e3 893d 54a0 3ebd eaec 8dbd
000000f0: b2d7 a1bc b105 b9bc e439 553d a748 ed3d
00000100: 50ea 133e 6c56 243e 3cee 43be 39e3 d4bd
00000110: 60a8 833e 5d92 963d 6059 a2bc 058f 393e
00000120: de80 9e3d 4d59 a7bc 9b71 db3c ac29 a63d
00000130: 1354 5fbd 7b9b 00bd 253f 28bd b0ff c23d
00000140: 9349 563d e7fa 0fbe 8f1f d3bd 5512 78bd
00000150: 1fb5 0a3b 50da 4e3d f1d9 0fbe 4afc d9bd
00000160: 23b6 79be 6f60 22be 9e5e 7eba af95 b0bd
00000170: 8f6d a43d 0dfe 823d cd75 98bc 05a2 94bd
00000180: 7dbf 5939 e546 0fbe 06cb 9ebd 2313 7bbe
00000190: 1471 2cbe 1261 34be 39e4 c3ba a8c5 433d
000001a0: 4129 30be 5a1b 3ebe c1e5 243b befb 0b3e
000001b0: 3101 48be d92e 1cbe 6db5 e73c 85ad 083e
000001c0: ff1a 033e 5bb9 3cbe 7253 01be 7b6c 92bd
000001d0: c709 eb3d 7488 503c e874 343c 7444 97bd
000001e0: 8570 aa3d e150 6cbe 97d5 3dbd abed a93d
000001f0: c58b debd d529 59be cf2a 203d 1ce6 93bb
00000200: 6ca2 b13d 2287 1ebd ed71 f8bc 74c6 d1bd
00000210: 224b e3bd 99b8 0dbe 470e 4abe aaa8 a83d
00000220: 72f4 043c 9479 cd3d 6406 373d cc9e d23d
00000230: 1db2 8b3d c5e4 17bd 382b 80be 2be7 fe3d
00000240: 9d68 123d a2da 11bb 5015 193e 7191 163e
00000250: e777 b4bd c5ec 08bd 9903 35bd 031d 16bd
00000260: b2b9 fdbd 5dff 91bd e2f0 a73d 4b93 eebd
00000270: db85 753d 4ed6 85bc cf71 62bb e2bd 843d
00000280: 3763 3fbd d178 8ebd 347e 09be e449 c93d
00000290: 5d3f 203d 5a76 84bd 0f9f d6bd cffa c1bd
000002a0: 6e82 3a3d bdfc 963d b9b0 c3bd c31b cd3d
000002b0: d915 cdbd 3118 283e 6aa3 9bbd 3bc1 363e
000002c0: ebac 24bb 5bd8 4c3d 062d 6f3e 2e61 89bd
000002d0: 3754 093e f7e6 00bb 1711 ecbd 2262 ae3d
000002e0: 3ee6 d83d 1d28 0a3d 6f33 21be fe82 f63d
000002f0: dfb4 013e c2bd 76be 4a0f 2ebc ca80 cebd
00000300: cdc0 09be 5a87 8d3d 308b 68bd 004b 1cbe
00000310: 6e4b 0bbe 605c 97bd 307c 2e3d ffb4 9e3d
00000320: a9e7 70bd e178 d6bd b037 ac3d 0bdd 28bc
00000330: cdec 3ebd 20c7 c6bd 5a77 8ebd 0e90 27be
00000340: e351 eabd f6ea 3d3e e54c 1bbe d6c6 083e
00000350: 9753 c0bd 8c00 8b3e 6798 1b3b 4ccb bebb
00000360: 2172 c53d 4e25 0a3d 89b0 01be e31f 033e
00000370: 844f 5bbe 194d b5bb f5ed 61bd 55a6 c8bd
00000380: f896 dd3d f4b0 b23b dd22 463d f7e7 17be
00000390: 7773 01bc 6368 35be 658f 09bd b917 09bd
000003a0: 19d8 46be ca73 5cbd 278a 01be e24d 4ebe
000003b0: 007f ecbc 9a54 ea3c d8be 113e 8992 e9bc
000003c0: df9a 163e 5965 a0bc

net.2.weight f4 [122, 242]
0.0143944165 0.022060495 0.06611374 0.045149297 0.045221712 0.035266697 0.057656586 -0.018192222
0.00241441 -0.0069823884 -0.060381494 -0.0021743868 -0.05472057 -0.038638663 -0.056969043 -0.033197846
0.045208402 0.06442998 0.015992874 0.008916949 0.053320304 0.014705007 -0.034257047 0.04599999
-0.032998733 0.041578103 -0.009380069 -0.012465865 -0.018182801 -0.047473107 0.06342935 -0.009300476
-0.0073149265 -0.056631677 -0.04814246 0.022440558 -0.043598127 0.025486488 -0.028141297 0.014931777
-0.047462136 -0.05036101 -0.020405525 0.013080157 -0.06668758 0.003536897 0.027845865 0.0431143
-0.019136922 0.020470984 -0.047846794 -0.0011922428 0.038056888 -0.06692176 0.0434947 0.021093419
-0.031725217 0.04152111 0.0091224825 -0.015661405 -0.0064036506 0.04654668 -0.024977721 0.027708463
0.028236048 0.04502292 0.005252537 -0.022444816 -0.03920641 -0.052172378 0.026821142 0.03604883
0.05574023 0.019222891 0.0594569 0.039409623 -0.058761485 0.02909075 -0.04605572 -0.007755395
0.0009992629 -0.03151472 -0.019728694 0.02118371 0.00277059 -0.038246825 -0.040869493 0.0054481872
-0.029604908 -0.008686113 0.0050982777 0.063502096 0.015248628 0.024768716 -0.036537185 0.0044054966
-0.03202845 -0.024908865 -0.050777208 0.058835283 -0.011820755 -0.027887972 -0.0033072715 -0.055653926
-0.025256136 0.016219856 -0.01307943 0.008760115 0.06605024 -0.0016421957 -0.062238455 0.029320318
-0.067942955 0.058925223 0.03403822 -0.015362567 0.028031541 0.035976112 0.009247168 -0.0025133565
-0.05525752 -0.016495127 0.02413696 -0.0625613 0.05661981 -0.025069637 0.01482379 -0.010654601
0.022653354 -0.03953818 -0.001708622 0.03474667 -0.009728772 0.015047288 -0.014480006 0.037629534
-0.020962117 -0.015290576 0.03939324 -0.017467553 0.026046634 -0.01258149 -0.010151113 0.05429897
-0.055979624 -0.016054057 -0.037322946 -0.06255513 0.05290415 0.025637634 0.0010472547 0.03650986
0.012196815 0.025133645 -0.0031336807 0.029478036 -0.054218475 0.040732987 0.061310668 -0.01249374
0.012016856 0.04689652 0.0129727395 -0.0059791985 -0.049414005 -0.0057816417 0.06353824 0.019002158
-0.028382946 -0.009431611 0.021085173 -0.0038193762 -0.026438817 -0.06359041 -0.023404336 -0.017075235
0.055688832 -0.061079144 -0.054559182 -0.05285873 0.04381071 -0.052407525 -0.03536145 0.008085023
-0.01783387 0.017513957 0.027118322 0.044832345 0.027502095 0.028969351 0.0026991877 0.047904573
0.042933293 0.0065058884 0.017095525 0.06587757 -0.037259877 -0.049085326 -0.016805498 0.028616143
-0.040998653 0.048774984 0.051690985 -0.000111524474 -0.06039294 -0.0030783133 -0.056271024 0.019997038
0.043806836 -0.046488058 0.054222826 0.054697994 -0.014811113 0.024397602 0.0549529 -0.047392406
0.05026384 0.01319718 -0.0016762149 -0.043189414 0.027212752 0.054007452 0.061584897 0.036691256
-0.007519907 -0.026618307 0.0036523615 0.02568897 -0.015390502 0.006274713 -0.050794683 0.05414702
0.046259176 -0.033792224 0.042220145 0.07097202 0.056080833 0.010280651 -0.06721357 -0.053415697
-0.059812233 -0.03568509 0.04333346 -0.065785356 -0.019188838 0.034620766 0.060032696 0.068366416
-0.025628088 -0.0122989165 -0.0655007 -0.019165315 -0.041826192 -0.005725088 0.02946252 -0.058887865
00000000: 8fd6 6b3c 36b8 b43c a466 873d 78ee 383d
00000010: 673a 393d d073 103d 5029 6c3d db07 95bc
00000020: 143b 1e3b 85cc e4bb 9652 77bd 2880 0ebb
00000030: ad22 60bd 9343 1ebd 5f58 69bd 77fa 07bd
00000040: 722c 393d def3 833d 7d03 833c 6518 123c
00000050: 6466 5a3d 45ed 703c 1e51 0cbd 7c6a 3c3d
00000060: ae29 07bd cd4d 2a3d dcae 19bc a13d 4cbc
00000070: 19f4 94bc 2973 42bd 3fe7 813d 0661 18bc
00000080: 0db2 efbb 9ef6 67bd 0731 45bd 43d5 b73c
00000090: f393 32bd 0ac9 d03c 9488 e6bc 69a4 743c
000000a0: a867 42bd 5947 4ebd 7d29 a7bc 284e 563c
000000b0: 7f93 88bd 49cb 673b 031d e43c 9f98 303d
000000c0: 09c5 9cbc c4b2 a73c 00fb 43bd 0845 9cba
000000d0: 8ae1 1b3d 470e 89bd 8027 323d 1bcc ac3c
000000e0: 4df2 01bd 0a12 2a3d 7776 153c 594c 80bc
000000f0: b7d5 d1bb bba7 3e3d 149e ccbc dcfc e23c
00000100: 494f e73c f469 383d 791d ac3b 31de b7bc
00000110: e796 20bd b4b2 55bd 03b8 db3c f0a7 133d
00000120: de4f 643d 5379 9d3c 1489 733d fc6b 213d
00000130: e2af 70bd b94f ee3c eca4 3cbd f820 febb
00000140: b3f9 823a 9415 01bd 129e a1bc 7689 ad3c
00000150: c992 353b b4a8 1cbd c566 27bd b586 b23b
00000160: fe85 f2bc 3350 0ebc 740f a73b 630d 823d
00000170: 62d5 793c c3e7 ca3c 04a8 15bd fc5b 903b
00000180: 4430 03bd ad0d ccbc c3fb 4fbd 44fd 703d
00000190: d7ab 41bc 5175 e4bc cfbe 58bb 5ff5 63bd
000001a0: f5e5 cebc 81df 843c 1b4b 56bc 9686 0f3c
000001b0: 5945 873d f23e d7ba c0ed 7ebd 2a31 f03c
000001c0: ad25 8bbd 935b 713d a96b 0b3d 47b3 7bbc
000001d0: 67a2 e53c b05b 133d 6f81 173c 20b7 24bb
000001e0: b655 62bd ca20 87bc e0ba c53c 2420 80bd
000001f0: 2dea 673d d75e cdbc 7bdf 723c a390 2ebc
00000200: 8793 b93c c9f2 21bd d7f3 dfba 8652 0e3d
00000210: 6d65 1fbc e688 763c 8c3d 6dbc 6d21 1a3d
00000220: bfb8 abbc 5385 7abc ce5a 213d 1d18 8fbc
00000230: c05f d53c 9822 4ebc db50 26bc 9968 5e3d
00000240: e44a 65bd cc83 83bc f2df 18bd e71c 80bd
00000250: 06b2 583d 0406 d23c 0944 893a 5d8b 153d
00000260: 26d5 473c 13e5 cd3c 705e 4dbb ec7b f13c
00000270: 3114 5ebd a2d7 263d e520 7b3d 8bb2 4cbc
00000280: 59e2 443c 9116 403d 9d8b 543c 27ed c3bb
00000290: 5766 4abd ed73 bdbb 5620 823d 6aaa 9b3c
000002a0: 5a83 e8bc 0b87 1abc d0ba ac3c 804e 7abb
000002b0: 3896 d8bc b03b 82bd 73ba bfbc 5de1 8bbc
000002c0: f919 643d 202e 7abd 7379 5fbd 6582 58bd
000002d0: dc72 333d 46a9 56bd 2bd7 10bd 0b77 043c
000002e0: 5618 92bc 6e79 8f3c 3e27 de3c 1fa2 373d
000002f0: 134c e13c 2251 ed3c dbe4 303b 9637 443d
00000300: d2da 2f3d 592f d53b ea0b 8c3c d2ea 863d
00000310: d09d 18bd b20d 49bd afab 89bc 676c ea3c
00000320: 34ee 27bd 47c8 473d edb9 533d 3fe2 e9b8
00000330: 965e 77bd 87bd 49bb 727c 66bd d4d0 a33c
00000340: cc6e 333d 436a 3ebd c118 5e3d 010b 603d
00000350: 4faa 72bc 7bdd c73c 4b16 613d 8a1e 42bd
00000360: 75e1 4d3d fc38 583c 70b4 dbba 62e7 30bd
00000370: 47ed de3c eb36 5d3d 7240 7c3d 9249 163d
00000380: 8d69 f6bb a30e dabc 755c 6f3b ad71 d23c
00000390: 7228 7cbc 1c9c cd3b 160e 50bd 44c9 5d3d
000003a0: 437a 3d3d b769 0abd 08ef 2c3d c759 913d
000003b0: 04b5 653d 2d70 283c 45a7 89bd 6bca 5abd
000003c0: acfd 74bd 872a 12bd 6d7e 313d 79ba 86bd
000003d0: e931 9dbc 81ce 0d3d d8e4 753d b103 8c3d
000003e0: fff1 d1bc 6581 49bc 3b25 86bd 9400 9dbc
000003f0: f151 2bbd 8599 bbbb 625b f13c 6734 71bd

net.2.bias f4 [122]
-0.050655622 0.08826869 0.07437765 -0.0765257 0.08978171 0.07771139 -0.10286652 0.1080736
-0.07947391 -0.04300906 -0.07036594 0.16469109 0.047886327 0.010515868 -0.06370474 -0.09000221
0.08280143 0.1300974 -0.06988656 0.10714073 0.110009134 -0.21230985 0.028450325 0.20815574
-0.058575425 0.12644377 0.08656037 -0.193964 -0.14450581 -0.11578229 -0.007652614 -0.17484426
0.23454286 0.1272539 0.045377996 -0.2231695 -0.017618287 0.042576447 0.0055179102 0.14673553
-0.048510313 0.2628917 0.04383486 -0.1270002 0.044386346 -0.11083941 0.15286043 0.017331235
-0.02265249 0.09846604 0.07948798 0.22475973 -0.121482834 0.13260345 -0.023402374 0.16334487
0.18117061 -0.10197336 -0.15125643 -0.057973407 -0.16637374 -0.13545986 0.06930297 -0.05549122
0.0835439 0.19196083 0.18057041 -0.0895737 -0.23830386 0.075922295 -0.03254289 -0.10927972
0.21506266 -0.070248306 0.09881658 -0.15840296 -0.120062746 -0.053037584 0.13853817 -0.04235237
0.02865429 -0.10205412 0.038085036 -0.046318457 -0.11286747 -0.110998265 0.07554979 -0.1260221
0.0835936 -0.010590907 -0.012047103 -0.018231133 0.08113815 0.11172881 -0.022966603 0.13253087
0.0981846 0.10823524 -0.109972715 0.068076886 -0.103352316 0.13755052 0.11986472 0.00067554746
-0.14754102 -0.122494265 0.05090712 0.046466365 -0.14370982 0.19119145 -0.06748073 0.0203149
0.17249186 -0.16530752 0.16873106 -0.16756736 -0.17357677 0.10323805 -0.1708084 0.06908434
0.14105487 -0.122379705
00000000: 457c 4fbd 37c6 b43d 4f53 983d 82b9 9cbd
00000010: 79df b73d 2627 9f3d afab d2bd b155 dd3d
00000020: 38c3 a2bd 452a 30bd 051c 90bd c8a4 283e
00000030: 7424 443d bf4a 2c3c a177 82bd 1453 b8bd
00000040: cc93 a93d 4138 053e af20 8fbd 996c db3d
00000050: 784c e13d c167 59be a810 e93c c726 553e
00000060: c9ec 6fbd 7a7a 013e 9046 b13d 809e 46be
00000070: 55f9 13be 441f edbd c7c2 fabb 600a 33be
00000080: 012c 703e d94e 023e 47de 393d 8c86 64be
00000090: 3a54 90bc a464 2e3d 96cf b43b d741 163e
000000a0: c0b2 46bd be99 863e 2f8c 333d 570c 02be
000000b0: 75ce 353d c6ff e2bd 7287 1c3e 3cfa 8d3c
000000c0: b791 b9bc 90a8 c93d 98ca a23d 6a27 663e
000000d0: fecb f8bd 33c9 073e 56b6 bfbc e143 273e
000000e0: ca84 393e 69d7 d0bd f7e2 1abe 8675 6dbd
000000f0: e15d 2abe fdb5 0abe b7ee 8d3d c34a 63bd
00000100: 1019 ab3d 6191 443e 73e7 383e 6b72 b7bd
00000110: ed05 74be 267d 9b3d b24b 05bd 0cce dfbd
00000120: 6339 5c3e 58de 8fbd 5960 ca3d 6334 22be
00000130: 75e3 f5bd f03d 59bd f3dc 0d3e ae79 2dbd
00000140: 67bc ea3c c001 d1bd 0eff 1b3d 6cb8 3dbd
00000150: 0f27 e7bd 0f53 e3bd d9b9 9a3d f00b 01be
00000160: 1f33 ab3d 7c85 2dbc 3661 45bc 7559 95bc
00000170: c22b a63d 13d2 e43d 7524 bcbc 2cb6 073e
00000180: 0215 c93d 70aa dd3d 6039 e1bd e56b 8b3d
00000190: 61aa d3bd 0bda 0c3e a27b f53d 3917 313a
000001a0: fe14 17be 46de fabd fc83 503d 8453 3e3d
000001b0: ab28 13be b1c7 433e 5633 8abd 6f6b a63c
000001c0: b5a1 303e 6046 29be d6c7 2c3e c796 2bbe
000001d0: 1cbe 31be 796e d33d 66e8 2ebe 177c 8d3d
000001e0: b070 103e 36a2 fabd

net.4.weight f4 [62, 122]
-0.042058073 0.07102028 -0.0030484702 -0.08142331 0.07809038 0.013935273 -0.10292639 0.0756287
-0.071195744 0.052349124 0.02337241 0.04084461 0.056102667 0.0056652785 -0.031570494 -0.010392362
0.07121404 -0.024181703 -0.04827805 0.025874645 0.088784985 -0.10613356 0.021753363 0.13060951
-0.025678834 0.105923645 0.04928588 -0.019986838 0.04732224 -0.022765787 -0.08585303 -0.0063263313
0.019480152 0.08449233 0.085633546 -0.052509867 -0.08704076 -0.02830399 0.080317765 0.023654068
-0.09956174 0.019228147 -0.04895009 -0.037918538 0.0008493927 -0.04942023 0.10393518 -0.034374088
0.074490696 0.03979592 0.035262376 0.076223426 -0.038106035 0.027945673 -0.011318253 0.022937568
0.05679908 -0.023732806 -0.11595608 0.05766302 -0.050552595 -0.06417017 0.0050077233 -0.04337469
0.044197563 0.043214224 0.13136701 0.018015703 -0.005429791 0.08719013 -0.02945358 -0.0513358
0.062472858 -0.09938586 0.090830564 -0.12716334 -0.09140272 0.073333025 0.092412084 -0.05987473
-0.00576878 -0.09235027 0.049507096 -0.06407387 0.029598163 0.048883706 0.07010186 -0.038921677
0.093388066 0.08673225 -0.014958224 -0.06559005 0.003056692 0.08998083 -0.03211196 0.096359216
0.04306302 -0.0032045478 0.02848291 0.080778494 0.023448857 0.07361646 -0.04030649 -0.045286853
-0.04012084 -0.0521602 -0.057365216 -0.029645978 0.022438806 0.10928716 -0.06770621 -0.036276724
-0.026982557 0.0159271 0.09841551 -0.1095106 -0.04803721 0.10302551 -0.047253393 0.016338749
0.10577737 -0.05104671 -0.008885765 0.01977264 -0.049707234 -0.030821696 0.053134557 -0.04814547
-0.104630075 0.06262196 0.03690028 0.021479912 -0.0013454943 0.073068395 0.007437111 0.0056134593
-0.06471574 0.07672286 0.062110666 0.0936845 -0.08378263 0.09326009 0.07992798 -0.10927034
-0.04167122 0.05684729 -0.024435598 0.08652744 0.007910262 -0.031393006 -0.018151628 -0.025275432
-0.016738106 0.0042232983 0.03125904 -0.020864904 0.037038706 0.011674751 0.020360416 0.04242707
0.047093358 0.049047533 -0.018954178 -0.0017564808 -0.016287116 -0.04853337 0.09783427 -0.02277176
-0.020306488 0.091002986 0.01611257 0.07079728 -0.075392924 0.009421981 0.04262427 0.0825135
0.052945323 -0.0229371 -0.011484268 0.071251206 0.010295824 -0.027702846 0.06443402 0.016225513
-0.043156277 0.03473437 0.0988108 0.044666752 0.05934822 0.07114031 -0.04164064 -0.0033711633
0.040400796 -0.08991501 0.09835965 0.057540398 -0.056773763 -0.07017408 -0.09649488 -0.03400175
0.049739115 0.08015562 -0.015652055 -0.07973882 0.08534927 -0.022513185 0.035365317 0.05203598
-0.0328344 -0.026446845 0.08130609 -0.04778029 -0.020714108 -0.061662976 0.031414498 0.044829935
0.013781003 0.09706878 0.064913936 0.046568677 0.06748274 -0.009864713 -0.037181623 -0.055721205
-0.071171515 -0.08593531 0.031044846 -0.013476634 0.040781267 -0.066768005 -0.0021970307 0.034117877
-0.101394 0.088325135 0.06553019 0.07576508 0.085632406 -0.06869966 -0.09353784 0.054749813
-0.094438955 -0.05064804 -0.07749629 -0.086752854 -0.062400278 -0.07654317 -0.028036138 -0.011477372
-0.032785624 -0.08612422 0.032109115 -0.08135656 0.035482086 0.04071444 -0.004282564 0.010577043
00000000: 1645 2cbd 1573 913d d8c8 47bb 44c1 a6bd
00000010: d9ed 9f3d c550 643c 12cb d2bd 38e3 9a3d
00000020: 13cf 91bd 096c 563d 7f77 bf3c ae4c 273d
00000030: e9cb 653d cda3 b93b 1050 01bd ba44 2abc
00000040: abd8 913d b518 c6bc 34bf 45bd 10f7 d33c
00000050: e7d4 b53d 8d5c d9bd 1c34 b23c 80be 053e
00000060: 6b5c d2bc 7fee d83d fedf 493d 70bb a3bc
00000070: f7d4 413d 517f babc b7d3 afbd 1d4d cfbb
00000080: d794 9f3c 510a ad3d a460 af3d 9614 57bd
00000090: 6d42 b2bd c5dd e7bc a47d a43d 2dc6 c13c
000000a0: 07e7 cbbd 5984 9d3c e47f 48bd 7850 1bbd
000000b0: c7a9 5e3a de6c 4abd f8db d43d d8cb 0cbd
000000c0: 948e 983d 0c01 233d 486f 103d 071b 9c3d
000000d0: 1315 1cbd 53ee e43c 3270 39bc 91e7 bb3c
000000e0: 27a6 683d 4d6b c2bc 627a edbd 0f30 6c3d
000000f0: 3d10 4fbd a66b 83bd d417 a43b a9a9 31bd
00000100: 8108 353d 6601 313d 1385 063e ab95 933c
00000110: 63ec b1bb bd90 b23d a248 f1bc 7d45 52bd
00000120: 8ae3 7f3d d08a cbbd 6005 ba3d 1b37 02be
00000130: 5931 bbbd a02f 963d 8c42 bd3d 343f 75bd
00000140: 0908 bdbb 2322 bdbd f4c7 4a3d 2939 83bd
00000150: d977 f23c 483a 483d 9091 8f3d 566c 1fbd
00000160: 3e42 bf3d aea0 b13d 5713 75bc 1354 86bd
00000170: c852 483b df47 b83d d587 03bd fb57 c53d
00000180: d962 303d 6403 52bb fe54 e93c 326f a53d
00000190: d117 c03c 3ac4 963d 6b18 25bd b57e 39bd
000001a0: c055 24bd efa5 55bd caf7 6abd 1fdc f2bc
000001b0: 96d1 b73c f2d1 df3d 8ea9 8abd e796 14bd
000001c0: 860a ddbc 8d79 823c 128e c93d 1847 e0bd
000001d0: aac2 44bd 0aff d23d c68c 41bd d7d8 853c
000001e0: cea1 d83d 5b16 51bd 9a95 11bc 3bfa a13c
000001f0: d099 4bbd c87d fcbc 9fa3 593d 2f34 45bd
00000200: 4b48 d6bd f13f 803d bf24 173d a4f6 af3c
00000210: 4c5b b0ba e2a4 953d 02b3 f33b 1cf1 b73b
00000220: b089 84bd e020 9d3d c167 7e3d a9dd bf3d
00000230: 3a96 abbd 25ff be3d 48b1 a33d 21c9 dfbd
00000240: 71af 2abd b4d8 683d 2a2d c8bc 4c35 b13d
00000250: 0b9a 013c f495 00bd b9b2 94bc 6c0e cfbc
00000260: 5a1e 89bc 9863 8a3b 7b09 003d e0ec aabc
00000270: e6b5 173d 7447 3f3c e3ca a63c 02c8 2d3d
00000280: f7e4 403d 11e6 483d cb45 9bbc b739 e6ba
00000290: 8f6c 85bc edca 46bd 555d c83d d88b babc
000002a0: cb59 a6bc c65f ba3d 82fe 833c 2afe 903d
000002b0: 9b67 9abd a75e 1a3c c996 2e3d d6fc a83d
000002c0: 32dd 583d 96e6 bbbc 8328 3cbc 27ec 913d
000002d0: d1af 283c 14f1 e2bc fcf5 833d 5eeb 843c
000002e0: a3c4 30bd a045 0e3d 515d ca3d 7cf4 363d
000002f0: 1e17 733d 03b2 913d 608f 2abd bcee 5cbb
00000300: 4e7b 253d 5c25 b8bd c970 c93d 7baf 6b3d
00000310: 9b8b 68bd 6eb7 8fbd 1c9f c5bd 6b45 0bbd
00000320: 3ebb 4b3d a128 a43d bd38 80bc 1b4e a3bd
00000330: 99cb ae3d 926d b8bc 39db 103d ae23 553d
00000340: 5d7d 06bd 0ea7 d8bc cf83 a63d 44b5 43bd
00000350: a2b0 a9bc 5192 7cbd 7dac 003d 989f 373d
00000360: b7c9 613c ffcb c63d 99f1 843d ccbe 3e3d
00000370: 6434 8a3d 9b9f 21bc c24b 18bd eb3b 64bd
00000380: 5fc2 91bd dafe afbd c351 fe3c 1acd 5cbc
00000390: 420a 273d aabd 88bd 0ffc 0fbb 30bf 0b3d
000003a0: a8a7 cfbd cfe3 b43d b134 863d b92a 9b3d
000003b0: 0b60 af3d 68b2 8cbd c490 bfbd 5741 603d
000003c0: 3669 c1bd 5274 4fbd 60b6 9ebd 7bab b1bd
000003d0: 6f97 7fbd aac2 9cbd 0bac e5bc 960b 3cbc
000003e0: 384a 06bd e561 b0bd d984 033d 459e a6bd
000003f0: aa55 113d 2fc4 263d c054 8cbb 554b 2d3c

net.4.bias f4 [62]
0.23572709 0.044675283 -0.19027385 -0.26472044 -0.112076536 -0.2581209 0.13276413 -0.1509918
0.18487464 0.0438957 -0.16545212 0.21891618 -0.16319655 -0.025407098 -0.003470323 -0.10189007
-0.14411506 0.059195656 0.24012385 0.078188926 -0.08358331 -0.011497345 -0.13289262 -0.060587905
-0.15921867 0.013875472 0.12218322 0.15304759 0.0032872634 0.20531663 0.047819417 0.1005794
0.2310242 0.1302349 0.15623793 -0.18968 0.21129586 -0.071283914 -0.0176343 0.0971808
-0.09226271 0.049208246 0.1461431 -0.008423217 -0.18126304 0.13913552 -0.14044121 -0.054141913
0.14059955 -0.10965632 0.08060492 0.20393264 -0.07609778 0.20340359 -0.08060308 0.060750067
-0.033836655 0.17759338 0.19829008 0.07263294 0.015437056 0.18598695
00000000: 7162 713e 6efd 363d 26d7 42be 7089 87be
00000010: 6288 e5bd 6c28 84be 52f3 073e 989d 1abe
00000020: c74f 3d3e facb 333d 486c 29be 902b 603e
00000030: ff1c 27be 8c22 d0bc 5c6e 63bb beab d0bd
00000040: e692 13be 2577 723d 07e3 753e 8421 a03d
00000050: ba2d abbd 5c5f 3cbc 0115 08be 062b 78bd
00000060: 380a 23be f355 633c 323b fa3d 82b8 1c3e
00000070: 216f 573b 863e 523e 4bde 433d 93fc cd3d
00000080: 9c91 6c3e 4c5c 053e d6fc 1f3e 793b 42be
00000090: f15d 583e 4dfd 91bd cf75 90bc ba06 c73d
000000a0: 3bf4 bcbd 968e 493d 89a6 153e 8801 0abc
000000b0: 059d 39be 8b79 0e3e d2cf 0fbe e9c3 5dbd
000000c0: 54f9 0f3e 7e93 e0bd 3114 a53d b8d3 503e
000000d0: 27d9 9bbd 0849 503e 3a13 a5bd 10d5 783d
000000e0: 4e98 0abd 0adb 353e 8e0c 4b3e 94c0 943d
000000f0: b5eb 7c3c 5d73 3e3e

net.6.weight f4 [18, 62]
0.013385357 0.03624462 -0.06150433 0.13600871 0.15561603 0.08407108 -0.117028505 0.07912922
0.043122396 -0.124903895 0.12606634 -0.18723072 0.11127226 0.11737496 -0.097506694 0.079589695
0.15565653 0.07548449 -0.02157707 -0.09139697 0.04590279 0.029269207 -0.061423585 -0.019320183
0.09530764 -0.11169478 -0.19032915 -0.15163313 -0.09596391 0.069846645 0.09974948 0.004695297
-0.13339539 -0.051485192 -0.13347538 0.044662386 -0.03873821 0.013570238 0.08212825 -0.1232175
0.17483796 0.07370414 -0.08939306 -0.022624746 0.14148727 0.015747601 0.012681478 0.009590032
-0.14687018 0.034386534 -0.1265853 -0.17173912 0.12725295 -0.0013437474 0.101802334 -0.09516796
0.10808812 -0.15423805 -0.14978123 0.014606679 -0.06940137 -0.15762709 -0.075667925 0.09828099
0.15308754 0.09363967 0.1704991 0.111125074 -0.03837171 0.13187097 -0.15699895 -0.086194
0.09823295 0.007902291 0.16021822 0.06847725 0.032451425 0.04979366 0.13097468 0.004472898
-0.1559895 0.05031051 0.009370376 0.11524001 0.07546733 0.057277426 0.052810546 0.044274896
-0.08080246 0.06345494 0.11049743 -0.08678422 0.03887508 -0.16268297 -0.10915984 -0.10566554
0.056953005 -0.029456329 -0.003001263 -0.04966154 -0.1264169 0.09663882 0.17874412 -0.10030366
-0.11243691 -0.11831986 0.03466839 -0.16360073 0.053287778 0.08132189 -0.06051456 0.006559141
-0.00419228 -0.13383731 0.10860875 0.04094511 -0.038734972 -0.0056090537 0.014597438 -0.018061921
-0.11123145 0.08193487 0.012375047 -0.016050791 -0.10453121 -0.020356748 -0.031401567 0.11483608
-0.05338386 0.095699936 0.012014425 0.0939919 -0.08396745 -0.028589612 0.15288626 -0.13944025
-0.0395913 -0.08344142 -0.0050212545 0.11822418 0.018775064 0.07152193 -0.11087532 -0.0009675477
0.020087693 0.0012076271 0.081955895 -0.059109043 0.21678062 -0.008617466 -0.007085898 -0.13739914
0.10243437 -0.1307322 0.060723186 -0.13745108 -0.21716061 0.08185221 -0.04153298 -0.10696158
-0.18080984 0.03423182 0.07409862 0.008374335 0.11244733 -0.080288075 -0.051986944 -0.06695717
0.16462387 -0.16867794 -0.0610073 -0.07255541 -0.15942127 0.16262124 -0.051340327 -0.19305326
-0.026989317 -0.16694856 0.07253285 0.03316344 0.043154188 -0.017043976 -0.039227758 -0.12274674
0.011038786 0.0439491 -0.042172138 -0.0953882 -0.02797632 0.130813 -0.0022081556 0.056599528
-0.03446392 0.08759314 -0.113089524 0.047400266 0.11404171 -0.20110914 -0.030400967 0.047021765
-0.0702594 -0.023143642 0.09719841 -0.08689507 -0.11696481 -0.07715714 0.08662875 0.010527937
0.12610964 0.08050694 0.04916199 0.107505105 -0.03981336 0.0019592326 -0.11102735 -0.10108956
0.10432766 -0.16591232 -0.15192282 0.11557418 -0.1204867 0.032113723 0.037870463 -0.032645717
-0.09141159 -0.0797382 0.06272737 0.054880537 -0.16380177 0.00848409 0.142544 -0.021045998
0.14975394 0.09573368 -0.0135896215 0.15308228 0.07463906 -0.15219656 0.041810725 0.049967565
0.07744532 -0.09806625 -0.063575864 -0.06224193 -0.032661717 -0.118496865 -0.112320445 -0.086032435
-0.15504861 -0.049200535 0.116611674 0.1566581 0.06629442 0.07022847 0.06982527 0.15745711
00000000: 424e 5b3c 3d75 143d f7eb 7bbd de45 0b3e
00000010: cf59 1f3e 752d ac3d a4ac efbd 800e a23d
00000020: 1ca1 303d 9dcd ffbd 8917 013e 69b9 3fbe
00000030: b6e2 e33d 4862 f03d 97b1 c7bd ecff a23d
00000040: 6d64 1f3e 9d97 9a3d 65c2 b0bc 562e bbbd
00000050: 9004 3c3d fac5 ef3c 4c97 7bbd 5c45 9ebc
00000060: a730 c33d 3cc0 e4bd a5e5 42be b745 1bbe
00000070: ba88 c4bd c20b 8f3d 7549 cc3d 02db 993b
00000080: cd98 08be 23e2 52bd c5ad 08be e8ef 363d
00000090: f5ab 1ebd b455 5e3c db32 a83d 7559 fcbd
000000a0: b908 333e 32f2 963d b513 b7bd 8857 b9bc
000000b0: 0ae2 103e 1d01 813c f9c5 4f3c 821f 1d3c
000000c0: 2365 16be e5d8 0c3d 949f 01be 61dc 2fbe
000000d0: 994e 023e ae20 b0ba be7d d03d 6be7 c2bd
000000e0: 4e5d dd3d 94f0 1dbe 4060 19be da50 6f3c
000000f0: 4e22 8ebd ff68 21be c9f7 9abd 8b47 c93d
00000100: fbc2 1c3e 28c6 bf3d 5197 2e3e 8b95 e33d
00000110: a72b 1dbd 2f09 073e 55c4 20be 7b86 b0bd
00000120: 5b2e c93d 9c78 013c 3f10 243e cd3d 8c3d
00000130: c9eb 043d 70f4 4b3d 3a1e 063e 6391 923b
00000140: b6bb 1fbe 6512 4e3d 3586 193c f402 ec3d
00000150: 9e8e 9a3d bc9b 6a3d df4f 583d 9859 353d
00000160: c37b a5bd aaf4 813d 7a4c e23d edbb b1bd
00000170: 7a3b 1f3d 5d96 26be 328f dfbd 2d67 d8bd
00000180: 8e47 693d 664e f1bc d6b0 44bb e669 4bbd
00000190: 6f73 01be 93ea c53d b308 373e 016c cdbd
000001a0: 5345 e6bd af51 f2bd 7100 0e3d f386 27be
000001b0: 4944 5a3d 178c a63d 1ede 77bd 10ee d63b
000001c0: 655f 89bb a60c 09be 446e de3d 0fb6 273d
000001d0: 90a8 1ebd 27cc b7bb 182a 6f3c 98f6 93bc
000001e0: 51cd e3bd 78cd a73d b6c0 4a3c f37c 83bc
000001f0: 7614 d6bd 32c3 a6bc ee9e 00bd 2e2f eb3d
00000200: 09a9 5abd 54fe c33d 27d8 443c d37e c03d
00000210: 20f7 abbd c334 eabc 378e 1c3e 6dc9 0ebe
00000220: 7d2a 22bd 56e3 aabd 5689 a4bb 851f f23d
00000230: 2ace 993c 177a 923d 9a12 e3bd 07a3 7dba
00000240: f28e a43c 3e49 9e3a 7ed8 a73d 531c 72bd
00000250: bdfb 5d3e 4630 0dbc d230 e8bb 5cb2 0cbe
00000260: 1cc9 d13d a9de 05be e0b8 783d fabf 0cbe
00000270: 5a5f 5ebe 22a2 a73d 7c1e 2abd ac0e dbbd
00000280: 3726 39be aa36 0c3d 04c1 973d 8234 093c
00000290: c94a e63d 136e a4bd 43f0 54bd d720 89bd
000002a0: 2993 283e e9b9 2cbe cae2 79bd ee97 94bd
000002b0: 543f 23be 2f86 263e 3c4a 52bd c1af 45be
000002c0: b318 ddbc 90f4 2abe 1a8c 943d 63d6 073d
000002d0: 72c2 303d cf9f 8bbc 49ad 20bd a562 fbbd
000002e0: 06dc 343c f903 343d b1bc 2cbd e35a c3bd
000002f0: 982e e5bc d8f3 053e b4b6 10bb e8d4 673d
00000300: 0a2a 0dbd 0864 b33d 7b9b e7bd c826 423d
00000310: b38e e93d 8eef 4dbe 730b f9bc e599 403d
00000320: 29e4 8fbd bc97 bdbc f60f c73d 0bf6 b1bd
00000330: 3f8b efbd 9004 9ebd 6a6a b13d 5e7d 2c3c
00000340: e322 013e d3e0 a43d 155e 493d a32b dc3d
00000350: 5513 23bd 7866 003b 4f62 e3bd 0b08 cfbd
00000360: bda9 d53d ebe4 29be a891 1bbe 28b2 ec3d
00000370: bbc1 f6bd ae89 033d 0f1e 1b3d 84b7 05bd
00000380: 0036 bbbd c84d a3bd 3577 803d 6aca 603d
00000390: a7bb 27be da00 0b3c 0ef7 113e a868 acbc
000003a0: 1959 193e 0510 c43d 01a7 5ebc 9ac1 1c3e
000003b0: 5ddc 983d 6ad9 1bbe b941 2b3d caaa 4c3d
000003c0: a79b 9e3d f5d6 c8bd 1034 82bd 65f1 7ebd
000003d0: 4bc8 05bd 7cae f2bd 4308 e6bd c631 b0bd
000003e0: 10c5 1ebe 8086 49bd 1ad2 ee3d fb6a 203e
000003f0: 5ec5 873d f2d3 8f3d 8d00 8f3d 703c 213e

net.6.bias f4 [18]
-0.2102617 -0.21831232 -0.12809631 -0.25069213 -0.2956181 -0.28342235 -0.086831056 -0.27835977
-0.25396374 -0.22261353 -0.07799677 -0.09373311 -0.3094475 -0.2204122 -0.19979814 -0.22940361
-0.1899743 -0.2988679
00000000: d84e 57be 448d 5fbe ae2b 03be b85a 80be
00000010: 415b 97be bc1c 91be 7bd4 b1bd 2c85 8ebe
00000020: 8907 82be cdf4 63be c5bc 9fbd 25f7 bfbd
00000030: e76f 9ebe bcb3 61be e297 4cbe c8e8 6abe
00000040: 9f88 42be 3705 99be
