models/BAN2.ckpt (torch, 630667 bytes, 8 tensors)

net.0.weight f4 [242, 486]
0	0xbcbb0c60	-0.02283305
1	0xbd21d654	-0.03951104
2	0xbada573f	-0.0016658081
3	0xbd31b044	-0.04338099
4	0xbc3f747e	-0.011685489
5	0x3d3c8236	0.046022616
6	0xbce5286e	-0.02797338
7	0x3d1ceb46	0.03831031
8	0xbd221390	-0.039569438
9	0x3b885ea5	0.004161673
10	0x3c5150b5	0.01277559
11	0x3c33acea	0.010966519
12	0xbd04fb53	-0.032466244
13	0x3ab1c3a6	0.0013562336
14	0xbcdcfe92	-0.026976857
15	0x3d36684e	0.044533066
16	0x3a50c36a	0.0007963689
17	0xbd258767	-0.040412333
18	0xbc9a8733	-0.018863296
19	0xbcfaa1be	-0.030594703
20	0x3d2afbbb	0.041743975
21	0xbcaf614b	-0.021408698
22	0x3d32208f	0.04348808
23	0x3cdc63c9	0.02690305
24	0xbcc818df	-0.024425922
25	0x3d2eb47d	0.042652596
26	0x3cadf2ab	0.021233877
27	0xbd001ff9	-0.03128049
28	0x3d3b84d7	0.045780983
29	0xbc9dc376	-0.019258242
30	0xbbecc118	-0.007225167
31	0xbca39629	-0.019969063
32	0xbc031ef3	-0.008002984
33	0xbbe5127c	-0.006990729
34	0x3c148c07	0.009066588
35	0xbc4ac9df	-0.012377231
36	0xbca2713f	-0.01982939
37	0xbca55d01	-0.02018595
38	0xbd30e3dd	-0.043186057
39	0x3d2d6e36	0.042341433
40	0xbd2fed39	-0.042950843
41	0x3cefde0f	0.02928069
42	0xbc5d4614	-0.013505477
43	0x3cfe7436	0.031061273
44	0xbd0dfd40	-0.034665346
45	0xb8f15829	-0.000115081966
46	0x3ba82edc	0.005132539
47	0xbc2e8c8b	-0.010653625
48	0x3d1758fa	0.03695009
49	0x3c153b08	0.009108312
50	0xbd2a9944	-0.04165007
51	0x3c9ce120	0.019150317
52	0x3aca97c4	0.0015456607
53	0x3d2e725c	0.04258953
54	0x3d1244b6	0.03571006
55	0x3d008fe6	0.031387232
56	0xbbd5cd7e	-0.0065247407
57	0xbcf78577	-0.030215008
58	0xbd00a62e	-0.03140848
59	0xbd0a177f	-0.033713814
60	0x3b9ab46e	0.004721216
61	0xbce00f43	-0.027351027
62	0x3cc67085	0.024223575
63	0x3c9222bf	0.017838834
64	0xbd280d35	-0.04102822
65	0xbd0c01a7	-0.034181263
66	0xbcbd2699	-0.023089694
67	0x3b02d09a	0.0019960762
68	0xbc65646e	-0.014000995
69	0x3d2792e4	0.04091157
70	0x3d31f823	0.043449532
71	0xbbab2ef3	-0.0052241026
72	0x3c33b14b	0.010967563
73	0xbc749950	-0.014929131
74	0x3d252e96	0.04032763
75	0x3ce48c8e	0.027899053
76	0x3c944a09	0.018101709
77	0x3b37074e	0.0027927938
78	0x3c7aa8fd	0.015299079
79	0x3c842cdf	0.016134677
80	0x3d211b99	0.03933296
81	0xbd20534e	-0.039141946
82	0x3d34f4de	0.044178836
83	0xbc45cd7c	-0.012072917
84	0xbb7587b9	-0.003746493
85	0xbca15597	-0.019694133
86	0xbbe7a45d	-0.007069154
87	0x3d1b612c	0.037934467
88	0x3d344cc8	0.044018537
89	0xbce55c64	-0.027998157
90	0x3d168933	0.036751937
91	0x3c9a123a	0.01880752
92	0xbc8def36	-0.017325979
93	0x3ce2bf33	0.027679062
94	0x3cf164d3	0.029467022
95	0x3d017102	0.031601913
96	0x3d0dfe3e	0.034666292
97	0x3c8e20a6	0.017349552
98	0xbd1ff2bf	-0.03904986
99	0x3c5b324c	0.013378691
100	0xbc817179	-0.015801178
101	0x3c7643e2	0.015030833
102	0x3c9b5904	0.018963344
103	0x3bd82a4a	0.006596838
104	0xbcc59517	-0.024118943
105	0x3ca094b4	0.019602157
106	0xbd113852	-0.0354541
107	0x3d16680c	0.03672032
108	0xbd2d9507	-0.04237845
109	0x3b8f9b45	0.0043825232
110	0xbc0fde14	-0.008780975
111	0x3a9f5277	0.0012155314
112	0x3d35b7e7	0.044364836
113	0x3d39a9a0	0.045327783
114	0xbcef57af	-0.029216615
115	0xbd067b26	-0.032832287
116	0x3c680f74	0.014163841
117	0x3d36a947	0.04459503
118	0xbd0a9700	-0.03383541
119	0x3caf3009	0.02138521
120	0x3cdd83ad	0.027040327
121	0xbd0affbd	-0.033935297
122	0x3ce78bb0	0.02826485
123	0xbb115ec9	-0.002218174
124	0xbc8522e2	-0.016251985
125	0xbc81ed58	-0.015860245
126	0xbcdb499c	-0.026768498
127	0xbb8b44c5	-0.0042501413
128	0xbaeaa73a	-0.0017902621
129	0x3d26ebba	0.04075215
130	0xbc977609	-0.0184889
131	0x3ca42fcd	0.020042324
132	0xbc01f535	-0.007931997
133	0x3c8ef8f3	0.017452693
134	0xbd0288df	-0.03186881
135	0xbc39bd9c	-0.01133671
136	0xbcf325a2	-0.02968103
137	0xbd080d2a	-0.03321568
138	0xbce80b4e	-0.028325703
139	0x3c168b97	0.009188554
140	0x3ccf96a0	0.025340378
141	0xbd061cf9	-0.032742474
142	0x3cca6722	0.02470738
143	0x3ceffaf4	0.029294468
144	0x3c465be6	0.012106871
145	0x3c75a0a8	0.014991917
146	0x3c064ce9	0.008197048
147	0x3cbd33f6	0.023096066
148	0x3c5aeabf	0.013361632
149	0x3be2883f	0.0069132145
150	0xbd24d9e0	-0.040246844
151	0x3c2f707d	0.010707972
152	0xbc91a2c4	-0.017777808
153	0xbc4bc913	-0.012438077
154	0xba0799d0	-0.0005172761
155	0x3d3b7bc2	0.04577232
156	0x3b7e0321	0.003875919
157	0xbbe251e2	-0.006906734
158	0xbd00fe7f	-0.031492706
159	0xbd1b7e38	-0.03796217
160	0xbc60621e	-0.013695268
161	0x3d27bbfb	0.040950757
162	0xbce008f8	-0.027348027
163	0xbb831657	-0.004000466
164	0xbd0527f4	-0.032508805
165	0x3d3bdfe1	0.045867804
166	0x3d2dcead	0.04243343
167	0x3d24b358	0.040210098
168	0x3cdd8ef5	0.027045706
169	0xbcfd395d	-0.030911142
170	0xbcb5a4a3	-0.022173231
171	0xbc77cbc1	-0.015124262
172	0x3c85be1e	0.016326007
173	0xbcd622e3	-0.026139682
174	0xbc0a7cd6	-0.008452615
175	0x3c512745	0.01276571
176	0x3c8d2298	0.01722841
177	0x3ce3d1e9	0.027810054
178	0xbb61c3ce	-0.0034448984
179	0xbd0a5f31	-0.033782188
180	0xbbc3f664	-0.0059803
181	0xbca52fe8	-0.020164445
182	0x3cb491ad	0.02204212
183	0xbcf3ce50	-0.029761463
184	0x3d0dff9a	0.03466759
185	0xb972bb05	-0.00023148589
186	0xbc49d38b	-0.012318502
187	0xbcfba8ff	-0.030720232
188	0xbba65a49	-0.005076681
189	0x3cb6a607	0.022295965
190	0x3c605b60	0.0136936605
191	0x3bc3b1bd	0.005972116
192	0x3d349a6d	0.044092584
193	0x3c25f7bf	0.010129868
194	0x3a46ed17	0.000758843
195	0x3c0c3927	0.008558548
196	0x3c7b9f9c	0.015357878
197	0xbc1c8411	-0.009552971
198	0xbc9a6870	-0.018848628
199	0x3cbbc265	0.022919843
200	0x3cdd6967	0.027027799
201	0xbb0fd496	-0.002194678
202	0xbb72acbc	-0.0037029227
203	0x3d0504b1	0.032475177
204	0xbd271c0e	-0.04079824
205	0x3cece244	0.028916486
206	0xbce3e615	-0.027819673
207	0x3c96bbed	0.018400157
208	0xbcdc0d50	-0.026861817
209	0x3d145a6c	0.036219046
210	0x3d011614	0.031515196
211	0xbceb9ec8	-0.028762236
212	0xbcc954dc	-0.024576597
213	0x3cc6ec48	0.02428259
214	0x3d0a4211	0.033754412
215	0x3c99e8b4	0.01878772
216	0xbcdc6632	-0.0269042
217	0xbd0ee28f	-0.03488403
218	0xbd1e5248	-0.03865269
219	0x39a5a8f5	0.00031597135
220	0x3c2d3a01	0.010572911
221	0xbbe9a9e1	-0.007130847
222	0xbc8a3639	-0.016871559
223	0x3c95a1c4	0.018265612
224	0x3bcff12d	0.006345889
225	0xbc49d63e	-0.012319146
226	0xbaa6d2a2	-0.0012727568
227	0x3b2bf509	0.0026238582
228	0x3c99ecd7	0.018789692
229	0xbd01a599	-0.031652067
230	0xbceb06b4	-0.02868972
231	0x3c92600c	0.017868064
232	0x3d007c12	0.031368323
233	0x3ce9c32c	0.028535448
234	0xbb925172	-0.0044652754
235	0x3d3347b1	0.043769542
236	0xbd14fca5	-0.036373753
237	0xbc002732	-0.007821845
238	0xbcd983b9	-0.026552068
239	0xbcfbd841	-0.030742766
240	0x3ce63270	0.028100222
241	0xbc656f5a	-0.014003599
242	0xbcb4e90f	-0.022083787
243	0x3bb0231c	0.005375279
244	0x3c381c12	0.011237161
245	0xbd00c5db	-0.03143869
246	0x3c91e229	0.017808037
247	0x3d1ede29	0.038786087
248	0x3c761a44	0.015020911
249	0xbca5d339	-0.02024232
250	0x3bc9fa59	0.006163877
251	0x3c889f6e	0.016677584
252	0x3c338870	0.010957822
253	0x3be78eac	0.0070665684
254	0x3c8ea8c9	0.017414467
255	0x3d2301c4	0.039796606

net.0.bias f4 [242]
0	0x3e00660a	0.12538925
1	0x3c1907b9	0.00934022
2	0xbe337973	-0.17526798
3	0x3d89fe5a	0.06737967
4	0xbd81b520	-0.06333375
5	0x3e609ac9	0.21934046
6	0xbe33fe2c	-0.17577428
7	0xbd156506	-0.036473297
8	0x3d364f32	0.04450912
9	0xbe837779	-0.25677088
10	0x3e2339b8	0.15939987
11	0xbe72ae90	-0.23699403
12	0x3ce3d916	0.027813476
13	0xbd5bfba5	-0.053706784
14	0xbcf90596	-0.030398171
15	0xbd7b39cd	-0.06133442
16	0x3e146a47	0.14493667
17	0xbe21c5c0	-0.15798092
18	0xbe23441b	-0.15943949
19	0x3e15b482	0.1461964
20	0xbcb5f6b5	-0.022212366
21	0xbce59c91	-0.028028758
22	0x3e35ef59	0.17767085
23	0xbe37fed1	-0.17968298
24	0xbde84409	-0.11341102
25	0xbd89a103	-0.06720164
26	0x3d11a73c	0.035559878
27	0xbcc60f7d	-0.024177307
28	0xbdb06668	-0.086132824
29	0x398fe511	0.00027445753
30	0xbe5bb4e0	-0.21455717
31	0x3d967972	0.073473826
32	0xb936c67e	-0.00017430817
33	0x3d966b17	0.073446445
34	0xbd8a3858	-0.06749028
35	0x3d1371f7	0.035997357
36	0xbdb3cca1	-0.08779264
37	0xbe03e678	-0.12880886
38	0xbb92efd6	-0.004484157
39	0xbc9f577f	-0.019450901
40	0xbe293ddc	-0.16527504
41	0xbdbc65a3	-0.09199073
42	0xbe039827	-0.1285101
43	0x3d0f2b10	0.034953177
44	0xbd34ed56	-0.044171654
45	0x3db245c0	0.0870471
46	0x3ced436a	0.02896281
47	0x3d35a97e	0.044351093
48	0xbcba2236	-0.022721391
49	0xbd427f2b	-0.047484558
50	0x3c0737e9	0.008253076
51	0x3e45f63c	0.19332212
52	0x3cd6d7d1	0.026225956
53	0x3d1e3a9b	0.03863011
54	0x3d3ee61e	0.046606176
55	0x3d86934a	0.06571062
56	0x3d9e2c0f	0.07723247
57	0x3e32528b	0.174143
58	0x3cf9875e	0.030460056
59	0xbd94e833	-0.07270851
60	0xbd483b5f	-0.048884746
61	0xbcdcd943	-0.026959067
62	0xbe0d1e99	-0.13781203
63	0x3df50023	0.11962917
64	0xbe2872dd	-0.16450067
65	0xbe303289	-0.17206778
66	0xbdde444d	-0.10852871
67	0xbe09328b	-0.13398187
68	0x3cc5e3fb	0.024156561
69	0x3dd67480	0.10471439
70	0xbdd942ec	-0.106084675
71	0xbc9f4052	-0.01943985
72	0xbde52464	-0.111885816
73	0xbdd7a9ac	-0.10530409
74	0x3e3920fa	0.18078986
75	0x3c37ad7f	0.011210798
76	0x3e2bc76f	0.16775297
77	0x3e3982b7	0.1811627
78	0xbdd628c7	-0.104569964
79	0x3decac45	0.11556295
80	0xbd3efd29	-0.04662815
81	0x3d30bebf	0.04315066
82	0xbe0a0669	-0.13479008
83	0xbcbb4a66	-0.022862624
84	0x3e79b13f	0.2438402
85	0xbdcd9ac5	-0.100392856
86	0xbde100ab	-0.109864555
87	0x3d8d5f31	0.06902922
88	0xbc839ae1	-0.016065063
89	0xbda60f2d	-0.08108363
90	0xbc963598	-0.018336102
91	0x3e1d916f	0.1538751
92	0xbd357a96	-0.04430636
93	0xbba5cbd3	-0.005059698
94	0xbe2568d9	-0.16153277
95	0xbdae86c0	-0.08521795
96	0x3df2cc6b	0.11855396
97	0x3c1e3797	0.009656808
98	0x3dafbdf8	0.085811555
99	0x3c2c39ea	0.010511855
100	0xbcc84448	-0.024446622
101	0x3d0536c8	0.032522947
102	0xbd35be53	-0.04437096
103	0xbd86125c	-0.065464705
104	0xbe25e05a	-0.16198865
105	0x3df79b9d	0.12090228
106	0xbe0ba96b	-0.13638847
107	0x3dec4942	0.1153741
108	0x3cc7f4f8	0.024408802
109	0xbd488c51	-0.04896194
110	0xbcec2ae5	-0.028829047
111	0xbd587b15	-0.052851755
112	0xbd745d81	-0.059659485
113	0xbd932036	-0.07183878
114	0x3ddbd898	0.10734671
115	0x3d0fc588	0.03510049
116	0x3d934f18	0.0719282
117	0xbced6d18	-0.028982684
118	0x3c8f3d41	0.017485263
119	0xbdd89ed1	-0.10577167
120	0xbcfb02d5	-0.030640999
121	0xbd7febef	-0.062480863
122	0x3e632bab	0.22184627
123	0x3d99de46	0.075130984
124	0x3dc9d4f7	0.09855073
125	0xbde755b3	-0.11295643
126	0x3e0edb04	0.13950735
127	0xbe11974a	-0.14217868
128	0xbd47bbdc	-0.04876314
129	0xbd66c15e	-0.056336753
130	0x3e0a1d62	0.13487771
131	0xbc4f4914	-0.0126517005
132	0x3d8cfd28	0.06884223
133	0x3d192afe	0.037394516
134	0xbd6261a9	-0.055268917
135	0x3d21e82a	0.03952805
136	0x3de3c1d7	0.111209564
137	0xbd1dc6a9	-0.038519535
138	0x3d573f23	0.052550446
139	0x3d8142d2	0.06311573
140	0x3d45bffb	0.04827879
141	0xbd3ad4f8	-0.04561326
142	0x3c9b7f87	0.018981708
143	0xbc8e0d30	-0.017340273
144	0x3bb0cf78	0.005395826
145	0xbdcd0f8c	-0.10012731
146	0xbcfebcea	-0.03109594
147	0xbc56a0d1	-0.013099865
148	0x3e1747be	0.14773461
149	0x3e44dc52	0.1922467
150	0x3cedaa6f	0.029011933
151	0xbe3a5298	-0.1819557
152	0xbc157adc	-0.00912353
153	0x3e1b3579	0.15157117
154	0xbe304dd6	-0.17217192
155	0xbe2b4e8f	-0.16729186
156	0x3d9c2060	0.076233625
157	0xbd47261f	-0.04862034
158	0x3e599926	0.21249828
159	0xbca188d0	-0.019718558
160	0x3e432510	0.19057107
161	0x3e360be5	0.17777975
162	0xbd2f3678	-0.042776555
163	0x3c967c93	0.018369948
164	0x3ce88e63	0.028388208
165	0x3e1e1181	0.15436365
166	0x3d57f7b6	0.05272647
167	0x3dae08e4	0.084977895
168	0xbd3d01cb	-0.046144288
169	0xbd9820a9	-0.074281044
170	0x3d9496f9	0.07255358
171	0x3d77da4c	0.06051092
172	0x3d3f8be1	0.04676426
173	0x3dbebb8e	0.09313117
174	0x3d206180	0.039155483
175	0xbd86976e	-0.06571852
176	0x3df1b4de	0.11802076
177	0x3dfced3a	0.12349935
178	0x3b81f403	0.003965856
179	0xbcc6c2f7	-0.024262888
180	0xbdad1754	-0.08451715
181	0xbe2c7721	-0.16842319
182	0xbc2ee107	-0.010673768
183	0xbc9d4435	-0.019197563
184	0x3de17e08	0.11010367
185	0x3e11289b	0.14175646
186	0x3d197ca4	0.037472382
187	0x3e5de6c7	0.21670066
188	0xbda0cdde	-0.07851766
189	0x3e00121e	0.12506911
190	0x3ccf9326	0.02533872
191	0xbd21a0d8	-0.039460033
192	0x3e44122a	0.19147554
193	0xbde85197	-0.11343687
194	0x3e3e3aee	0.18577167
195	0x3c9678f1	0.018368216
196	0xbd13da19	-0.036096666
197	0xbd947610	-0.07249081
198	0x3e21fa5c	0.15818161
199	0xbd55511f	-0.052079316
200	0x3dd9e21b	0.10638829
201	0xbd2e6e99	-0.042585943
202	0xbd1ac82a	-0.037788548
203	0x3dc43786	0.09580903
204	0xbd432608	-0.04764369
205	0x3e1a86c7	0.15090476
206	0x3dcd7b7a	0.10033317
207	0xbc533cf8	-0.012892954
208	0x3cbb0aac	0.022832237
209	0x3e6211a5	0.22077043
210	0xbb231e8d	-0.0024890036
211	0x3d645719	0.055747125
212	0xbe20016f	-0.15625547
213	0xbe7c4d49	-0.24638857
214	0xbe4da632	-0.2008293
215	0xbd00709e	-0.0313574
216	0x3e12c2a4	0.14332062
217	0xba62f5ca	-0.0008657841
218	0x3d8527b9	0.06501717
219	0x3e4e5a67	0.20151673
220	0xbdcbdf12	-0.09954657
221	0x3d335086	0.043777965
222	0x3c763fd5	0.015029867
223	0xbd6b9ed7	-0.05752453
224	0xbdf39a19	-0.11894626
225	0x3ca643e3	0.020296043
226	0x3c38b9b2	0.011274742
227	0x3e68b44a	0.22725025
228	0xbb373b95	-0.0027959098
229	0x3d49bd34	0.049252704
230	0x3e3f0062	0.1865249
231	0x3b2e1d48	0.0026567746
232	0xbcaee79d	-0.021350676
233	0x3e2a87df	0.16653393
234	0x3e02de67	0.12780152
235	0x3d071ba0	0.03298533
236	0xbe55d2a4	-0.20881134
237	0x3dfad7c9	0.12248189
238	0xbce70301	-0.028199675
239	0xbd94e5a1	-0.07270361
240	0x3e1d2966	0.15347824
241	0xbe55ff2e	-0.20898125

net.2.weight f4 [122, 242]
0	0x3d8b560d	0.06803522
1	0xbd1f4474	-0.03888364
2	0x3d457ec9	0.048216615
3	0xbccb96f4	-0.024852253
4	0xbd5422ae	-0.051790886
5	0xbc64d23b	-0.0139661385
6	0xbcbad0cb	-0.022804638
7	0x3d525661	0.05135191
8	0x3d42af91	0.047530714
9	0x3a4a04dc	0.00077064126
10	0x3ccc75aa	0.02495845
11	0xbd5c38c6	-0.05376508
12	0xbc6a8afb	-0.014315362
13	0xbd696057	-0.056976642
14	0x3cd5f641	0.0261184
15	0xbbf760bb	-0.007549373
16	0xbd0d2d19	-0.034466837
17	0xbcd4afae	-0.025962677
18	0xbd54d361	-0.0519594
19	0xbd410d0e	-0.04713159
20	0xbd64d5ab	-0.055867832
21	0xbd891452	-0.06693329
22	0xbd45713c	-0.04820369
23	0xbd6fd692	-0.05855424
24	0xbd6b3ac3	-0.057429086
25	0xbd5a2785	-0.053260345
26	0x3d879319	0.066198535
27	0xbce2b9f3	-0.027676558
28	0xbd3027b8	-0.04300663
29	0xbc2c840e	-0.010529531
30	0xbd9dcc3c	-0.0770497
31	0xbcff2e47	-0.031149996
32	0x3d6fde18	0.058561414
33	0xbcaa4ade	-0.020787653
34	0x3d130b18	0.03589925
35	0xbd04719b	-0.032334905
36	0x3d394982	0.04523612
37	0xbd3239d8	-0.043512195
38	0xbc176480	-0.00924027
39	0xbd28f601	-0.041250233
40	0x3adbe7bb	0.0016777435
41	0xbd689ea1	-0.056791905
42	0x3c9b9572	0.01899216
43	0x3cffe09d	0.031235034
44	0x3c252f55	0.010082086
45	0x3c35709e	0.011074213
46	0x3cf8671d	0.030322606
47	0xbba74907	-0.005105141
48	0xbd2ae08e	-0.04171806
49	0xbd7d066a	-0.061773695
50	0x3cc369d3	0.023854172
51	0x3b97b7fc	0.004630087
52	0x3c462e8f	0.012096061
53	0xbd611e3c	-0.054960474
54	0x3c9d4bb5	0.019201139
55	0xbbe353aa	-0.006937464
56	0xbbb6f98d	-0.005583948
57	0xbd308119	-0.043091867
58	0x3cec7786	0.028865587
59	0x3c70706e	0.014675243
60	0xbd4c9dfc	-0.049955353
61	0xbcc0255b	-0.023455312
62	0xbd16f56f	-0.036855157
63	0x3d124428	0.03570953
64	0x3b1f876d	0.0024342195
65	0xbcc25f31	-0.023727031
66	0xbd57c5fc	-0.052679047
67	0x3c57c625	0.0131698
68	0x3d611abd	0.05495714
69	0xbd32bec1	-0.04363895
70	0xbccb1052	-0.024788056
71	0xbc20bdc2	-0.009810867
72	0xbcf485bf	-0.029848931
73	0x3ca6604c	0.02030959
74	0x3d6e0c95	0.058117468
75	0xbd6ce2b8	-0.057833403
76	0x3d4d0b9d	0.050059903
77	0x3d663c72	0.05620999
78	0xbd897264	-0.067112714
79	0x3d49aa0a	0.049234428
80	0xbb9a6a77	-0.0047123986
81	0xbcd9bcc8	-0.026579276
82	0x3c4d24de	0.012520997
83	0x3af15b90	0.0018414129
84	0x3d5d11cd	0.053972054
85	0xbb080403	-0.0020754344
86	0x3c64edc3	0.013972702
87	0x3d776a81	0.060404304
88	0xbc9af484	-0.018915422
89	0x3d6cd7e7	0.057823088
90	0xbd5c4877	-0.053780045
91	0x3d8347ae	0.06410156
92	0x3d79efce	0.06101971
93	0xbcbcf217	-0.023064656
94	0xbd9a61f9	-0.07538218
95	0xbd01f8a7	-0.031731274
96	0x3d165402	0.03670121
97	0xbd208c86	-0.039196514
98	0xbc5b7bfd	-0.01339626
99	0x3d00f3e5	0.031482596
100	0xbcf4d751	-0.029887827
101	0xbd2cf5af	-0.04222649
102	0xbd17b554	-0.037038162
103	0x3d53368f	0.051565703
104	0xbcf9f635	-0.030512908
105	0x3bd70da9	0.0065629077
106	0xba2bcf8c	-0.0006554059
107	0x3ced16e8	0.028941587
108	0x3c890572	0.01672623
109	0xbd33ce61	-0.04389799
110	0x3d2552d5	0.040362198
111	0xbd58d873	-0.052940797
112	0x3ce67e31	0.028136345
113	0xbd7f7f77	-0.06237742
114	0x3d201834	0.039085582
115	0xbd1aa11a	-0.037751295
116	0xbd2815c6	-0.04103639
117	0xbd0a6853	-0.033790898
118	0xbd008731	-0.03137893
119	0xbd5737a0	-0.052543283
120	0xbd433fcf	-0.047668274
121	0x3cd2d6eb	0.025737246
122	0x3d1bdbd3	0.038051438
123	0xbcb967e1	-0.022632541
124	0xbca36d1d	-0.01994949
125	0xbd5fa7b4	-0.054603294
126	0x3d810a46	0.06300788
127	0xbcf0e29b	-0.029404929
128	0xbd30ffeb	-0.043212812
129	0xbd589308	-0.052874595
130	0xbd0d33ef	-0.034473356
131	0xbcea3b28	-0.028592661
132	0xbd3e1891	-0.046410147
133	0xbc9da23f	-0.019242404
134	0xbd3a50b4	-0.04548712
135	0x3d194ed2	0.037428685
136	0xbd02d9f0	-0.031946123
137	0xbcc5bc81	-0.024137737
138	0x3c9f65e6	0.019457769
139	0xbb8eec4b	-0.0043616644
140	0xbc7f24fd	-0.015572784
141	0x3d1c661a	0.03818331
142	0x3cfa9804	0.030590065
143	0xbb968226	-0.0045931516
144	0xbcd21d8f	-0.02564886
145	0x3cb622e6	0.022233438
146	0xbd1e4a74	-0.038645223
147	0x3d57a47e	0.052647106
148	0x3d87e0d5	0.0663468
149	0x3d5c3bb0	0.05376786
150	0x3c942686	0.018084776
151	0x3ced0507	0.028933061
152	0xbc1294d3	-0.008946615
153	0x3c8cc699	0.017184542
154	0xbd2a1f36	-0.04153367
155	0xbce8ea76	-0.028432112
156	0xbc392adb	-0.011301721
157	0x3ba21a1b	0.0049469597
158	0xbccd0ce6	-0.025030565
159	0x3c1cf228	0.009579219
160	0xbd37633c	-0.04477237
161	0xbd069a79	-0.03286216
162	0xbc9a92ce	-0.01886883
163	0x3ca7ceb0	0.020484298
164	0xba83eb93	-0.0010064713
165	0xbd343c11	-0.044002596
166	0x3d835900	0.0641346
167	0x3d9424c7	0.07233577
168	0xbcde91d2	-0.027169142
169	0xbd78d3c8	-0.060748845
170	0xbd53295f	-0.051553126
171	0x3c876b21	0.016530575
172	0xbbe8a7fc	-0.0071001034
173	0x3b956b82	0.004559935
174	0xbcf90e65	-0.030402372
175	0xbc117c61	-0.008879752
176	0x3d7ee069	0.062225733
177	0xbb2b4962	-0.002613627
178	0xbbd931fd	-0.0066282735
179	0xbbb770fb	-0.005598185
180	0xbc8b8198	-0.017029569
181	0x3b90271d	0.004399194
182	0xbc5a1fe6	-0.013313269
183	0xbd3ab543	-0.04558302
184	0x3cf01242	0.029305581
185	0x3d6645bd	0.05621885
186	0xbd39d8a4	-0.04537262
187	0xbcafa11e	-0.021439131
188	0x3d232456	0.039829575
189	0x3d58aed3	0.0529011
190	0x3d11a253	0.035555195
191	0x3cfe500b	0.031044027
192	0x3b824cbc	0.0039764326
193	0xbccbf14b	-0.02489533
194	0x3d756d05	0.059918422
195	0x3caada8c	0.020856164
196	0xbd618234	-0.055055812
197	0xbd469f52	-0.048491783
198	0x3d81580a	0.0631562
199	0xbc63f58f	-0.013913526
200	0x3d92a9f1	0.0716132
201	0x3bcc259d	0.00623007
202	0x3d22078f	0.03955799
203	0xba54aeba	-0.00081131945
204	0xbd2a6d5a	-0.041608192
205	0x3b9236a2	0.004462079
206	0x3d4c820a	0.049928702
207	0x3ba95619	0.0051677343
208	0x3d496631	0.049169723
209	0x3d698be6	0.057018183
210	0x3c87218a	0.016495485
211	0xbbed12d8	-0.0072349124
212	0xbd8ca287	-0.06866937
213	0xbc98d148	-0.01865448
214	0xbd9bcbc5	-0.07607225
215	0xbc56c90b	-0.013109456
216	0xbd3b7fac	-0.045776054
217	0x3cf6a9ed	0.030110324
218	0xbc4de0fa	-0.012565846
219	0x3d8d04dd	0.06885693
220	0x3d6afe3d	0.057371367
221	0x3d03fb78	0.03222224
222	0x3ce58b31	0.028020473
223	0x3d13708f	0.035996016
224	0x3d315b69	0.043300066
225	0xbc05a7d1	-0.008157686
226	0x3d763d5f	0.06011712
227	0x3d426614	0.04746063
228	0xbd53bf46	-0.051696084
229	0x3d56f893	0.052483153
230	0x3d72b187	0.059251335
231	0x3d85c78a	0.065322
232	0x3d0f4379	0.034976456
233	0x3c05a9dd	0.008158174
234	0x3d383649	0.044973645
235	0x3d20cfab	0.039260548
236	0xbd9c5067	-0.07632523
237	0xba9e354e	-0.0012070329
238	0xbd8606a9	-0.06544239
239	0xbc4ba75b	-0.012430037
240	0x3d934278	0.07190412
241	0xbd6b2731	-0.057410423
242	0x3d0c4b33	0.034251403
243	0xbd498cde	-0.049206607
244	0x3d67605b	0.056488376
245	0xbbd7bc25	-0.006583708
246	0x3d22796d	0.039666582
247	0xbd4c24b1	-0.04983968
248	0x3c0c758d	0.008572948
249	0x3ca236ac	0.01980146
250	0xbba59ae3	-0.0050538643
251	0x3c99f9c7	0.01879586
252	0xbd540b04	-0.051768318
253	0x3d433788	0.04766038
254	0xbd4d67e3	-0.050147902
255	0x3d61968b	0.05507521

net.2.bias f4 [122]
0	0x3de48054	0.11157289
1	0xbdf507fa	-0.11964412
2	0xbd6b0e71	-0.05738682
3	0x3d5abb36	0.053401195
4	0xbe169e37	-0.14708792
5	0x3de0dc3d	0.10979507
6	0xbd685a29	-0.05672661
7	0x3e0bdd2e	0.13658592
8	0x3e07e963	0.13272624
9	0x3dbb6af0	0.09151256
10	0xbe2debd4	-0.16984493
11	0x3d57905f	0.052627917
12	0xbd1b5511	-0.037922923
13	0xbd9c0904	-0.07618907
14	0x3d498f17	0.049208727
15	0xbd7b92d5	-0.061419327
16	0x3d2e70a9	0.04258791
17	0x3e1bf0bf	0.15228556
18	0x3da64da6	0.08120279
19	0x3d8849f7	0.06654733
20	0xbc9e703b	-0.019340625
21	0x3df961b4	0.121768385
22	0x3ccfa237	0.025345905
23	0xbc923cd4	-0.01785127
24	0xbe38f2c3	-0.18061356
25	0x3d331213	0.04371841
26	0x3c51c945	0.012804334
27	0xbd2afed4	-0.04174693
28	0x3d1df21d	0.038560975
29	0xbc794436	-0.015214017
30	0x3d2288ce	0.03968125
31	0xbdb1b2ad	-0.08676658
32	0xbe10cf9e	-0.141417
33	0x3e5cf9e1	0.21579696
34	0x3c4eead4	0.01262923
35	0xbc9e7a4e	-0.019345429
36	0x3da0916b	0.07840236
37	0xbcc3cae7	-0.023900462
38	0xbdaeef86	-0.08541779
39	0x3e4cc0c3	0.19995408
40	0xbe652091	-0.22375704
41	0x3dd49670	0.10380256
42	0x3d4e3b4a	0.05034951
43	0xbddb7d34	-0.1071724
44	0x3d7956c0	0.060873747
45	0xbd3cc951	-0.046090428
46	0x3d384b09	0.044993434
47	0xbc81c9d0	-0.015843302
48	0x3dcf14d7	0.10111397
49	0x3deb2c45	0.11483053
50	0xbe1b731e	-0.15180632
51	0x3d82380e	0.06358348
52	0x3e45b6fa	0.19308081
53	0xbc87f804	-0.016597755
54	0xbd348092	-0.044067927
55	0x3d7f7167	0.06236401
56	0xbe4b938b	-0.19880502
57	0x3e4bde2d	0.19908972
58	0x3e83b2c2	0.2572232
59	0xbd8b3dff	-0.06798934
60	0x3e347302	0.17621997
61	0x3dd1badb	0.10240718
62	0xbe9a2a4a	-0.3011039
63	0xbca13f12	-0.019683395
64	0xbc80393a	-0.015652288
65	0xbe26ee1f	-0.16301773
66	0x3c87879e	0.01654416
67	0xbaabbe4f	-0.0013102981
68	0x3e69a894	0.22818214
69	0xbdf5d44c	-0.12003383
70	0xbce6335a	-0.028100658
71	0x3dea6432	0.11444892
72	0x3d75778f	0.059928473
73	0xbe78382a	-0.24240175
74	0xbcb3d636	-0.02195273
75	0x3e3533e4	0.17695576
76	0x3d5cbe4e	0.053892426
77	0xbe301ab0	-0.1719768
78	0xbe249b84	-0.1607495
79	0x3e80fa32	0.25190884
80	0x3db1ad18	0.08675593
81	0xbcef798e	-0.029232766
82	0x3dddca1d	0.10829566
83	0xbd814229	-0.06311447
84	0x3ce13e50	0.027495533
85	0xbdaae7de	-0.083450064
86	0xbd03781b	-0.032096963
87	0xbb3d2039	-0.0028858318
88	0x3d9ca530	0.076486945
89	0x3d971b62	0.0737827
90	0x3e172b7f	0.14762686
91	0xbe612e15	-0.21990235
92	0x3d6b8520	0.057500005
93	0xbe328fe9	-0.1743771
94	0x3d726df8	0.059186906
95	0x3daf650d	0.08564196
96	0xbe38b381	-0.18037225
97	0xbdb981da	-0.0905797
98	0x3d597c83	0.05309726
99	0x3e83f54d	0.25773087
100	0x3d11b18b	0.03556971
101	0xbe24cc47	-0.1609355
102	0xbc390d65	-0.011294697
103	0x3dc7c129	0.09753639
104	0x3e0e1349	0.13874544
105	0xbe744d35	-0.23857577
106	0x3e183273	0.14862995
107	0x3de7f4a2	0.11325957
108	0xbda9499a	-0.082659915
109	0x3e53aa4a	0.20670429
110	0x3cb0df90	0.021590978
111	0x3d9c14c3	0.076211475
112	0xbe16a19d	-0.14710088
113	0x3c7b3cb7	0.0153343
114	0x3d99d81c	0.07511923
115	0xb956a22d	-0.00020469046
116	0xbdbfcc29	-0.09365112
117	0x3d9ad8db	0.07560893
118	0xbd06b3b5	-0.032886226
119	0xbd000b59	-0.031260822
120	0x3dd513e7	0.10404187
121	0xbc5ebd74	-0.013594974

net.4.weight f4 [62, 122]
0	0xbd9cf5ca	-0.07664068
1	0xbd28c9b9	-0.041208003
2	0x3d52f24d	0.051500607
3	0xbdb72b44	-0.08943799
4	0x3d76335c	0.060107574
5	0x3d45f779	0.04833171
6	0x3dc1251c	0.09430906
7	0xbd8f9887	-0.07011514
8	0x3d5d24a9	0.05399004
9	0xbd93377d	-0.07188318
10	0x3d8d38b8	0.06895584
11	0xbcdeb707	-0.027186884
12	0xbd6eb4b6	-0.058277808
13	0xbce9897f	-0.028507946
14	0x3cf773d0	0.03020659
15	0xbd7268fe	-0.05918216
16	0xbc538d71	-0.01291214
17	0xbd278cc1	-0.040905718
18	0x3ba96018	0.005168926
19	0xbd4f732d	-0.05064695
20	0x3d0c365a	0.03423152
21	0xbdd441a3	-0.10364082
22	0xbd0e668a	-0.034765758
23	0xbc9918f0	-0.018688649
24	0x3dd78458	0.105232894
25	0x3c9b6b7d	0.018972153
26	0xbd8c1681	-0.0684023
27	0x3db8c2b2	0.0902151
28	0x3d865277	0.06558698
29	0x3da91c20	0.082573175
30	0x3cff9f05	0.031203756
31	0x3dbefbd7	0.093253784
32	0xbd757609	-0.05992702
33	0xbe083371	-0.13300873
34	0x3daf281f	0.08552574
35	0x3cb5a269	0.02217217
36	0x3cd81d80	0.026381254
37	0x3cce224e	0.025162842
38	0xbd4354e1	-0.04768837
39	0x3d2f7e90	0.04284531
40	0x3d15fb3d	0.036616553
41	0xbdb6ea18	-0.089313686
42	0xbd5688f4	-0.052376702
43	0x3b9e3f90	0.0048293546
44	0xbd12594b	-0.035729688
45	0x3d8b88c2	0.06813194
46	0xbd153739	-0.036429618
47	0x3db81153	0.08987679
48	0xbd9c29af	-0.07625138
49	0xbdaa8f84	-0.08328155
50	0xbd13c503	-0.036076557
51	0xbcb04ba1	-0.021520438
52	0xbcf98065	-0.030456731
53	0xbc9a7189	-0.018852966
54	0xbd30a9a3	-0.04313053
55	0xbd1c31b8	-0.038133353
56	0x3d1b2db3	0.03788538
57	0xbdebecb5	-0.11519758
58	0xbdcf22d4	-0.10114065
59	0x3dbfed00	0.09371376
60	0xbdc9ed5d	-0.098597266
61	0xbcd4fa32	-0.025998209
62	0x3e1312b3	0.14362602
63	0x3d7f29a6	0.06229558
64	0xbbc839d7	-0.0061104107
65	0x3d2b5181	0.041825775
66	0xbd84da93	-0.06487002
67	0x3d897f45	0.06713728
68	0xbe108686	-0.14113817
69	0xbc0c8f8c	-0.008579146
70	0x3d87b8b6	0.06627028
71	0xbd489049	-0.048965726
72	0xbc3c455a	-0.011491144
73	0x3d5c5587	0.053792503
74	0x3b660005	0.0035095226
75	0xbe0855c2	-0.13313964
76	0x3c2d26d3	0.010568338
77	0x3d92a43b	0.07160231
78	0x3dcd0c24	0.10012081
79	0xbdedcd9a	-0.11611481
80	0xbd8581f1	-0.06518925
81	0xbd402358	-0.046908706
82	0x3c11b944	0.008894268
83	0x3d6c85ea	0.057744898
84	0xbd864164	-0.06555441
85	0xbcb6da54	-0.022320904
86	0xbc23f72d	-0.010007662
87	0xbcc46646	-0.023974549
88	0xbd264bd3	-0.040599655
89	0xbd56c0bd	-0.052429903
90	0xbdf6f51a	-0.12058468
91	0x3de3bbfb	0.11119839
92	0xbc62bc38	-0.01383882
93	0x3df4ebdb	0.11959048
94	0x3c857dea	0.016295392
95	0x3c833dc5	0.016020665
96	0x3dbe057c	0.0927839
97	0x3da490b3	0.08035412
98	0xbd81bc6f	-0.06334769
99	0xbd4d8c81	-0.050182823
100	0xbd2ed910	-0.042687476
101	0x3d6324b6	0.055454932
102	0x3ce7c47a	0.02829193
103	0xbd8456ef	-0.06461894
104	0xbc99ce37	-0.018775089
105	0x3de952c4	0.113927394
106	0xbdb7f2a5	-0.08981828
107	0xbda9c92e	-0.08290325
108	0x3ddcf77a	0.1078939
109	0xbdf784f9	-0.120859094
110	0x3c81a2cc	0.015824698
111	0x3d2fa9ab	0.042886417
112	0x3dfc93c2	0.1233287
113	0x3d2c4afe	0.042063706
114	0xbda808d9	-0.082048126
115	0xbdb3f460	-0.08786845
116	0xbb6497d6	-0.003488054
117	0xbc1e3c1a	-0.009657884
118	0x3d9ca181	0.07647992
119	0xbd7007f8	-0.05860135
120	0x3d44f695	0.04808672
121	0x3c8b9327	0.017037941
122	0xbd1783e4	-0.036991015
123	0xbc79a971	-0.015238152
124	0xbd99f3bc	-0.07517192
125	0xbd00c914	-0.031441763
126	0xbcee9b7b	-0.029126873
127	0x3d872c51	0.066002496
128	0xbd353936	-0.044244014
129	0xbdafdf1f	-0.08587479
130	0xbd583e12	-0.05279357
131	0xbda2f1ef	-0.079563014
132	0x3d016633	0.031591605
133	0xbd831220	-0.063999414
134	0x3db5dd8e	0.08880149
135	0xbd9508db	-0.0727708
136	0xbc21b7bf	-0.009870469
137	0xbc94303b	-0.018089404
138	0xbd5549ce	-0.05207234
139	0xbd9410f4	-0.07229796
140	0xbca6fe90	-0.020385057
141	0xbd2121d3	-0.039338898
142	0xbd51ed90	-0.051251948
143	0x3d1550a7	0.03645387
144	0xbd401b3e	-0.04690098
145	0xbd9132a9	-0.07089741
146	0xbd9279fc	-0.07152173
147	0xbd4ba829	-0.049720917
148	0x3d8d1bc1	0.06890059
149	0x3dab4614	0.08362976
150	0x3dab6a90	0.083699346
151	0x3cd4c905	0.02597476
152	0xbd37faa7	-0.044916775
153	0x3bc13a46	0.0058968393
154	0x3d9c8c9d	0.07644007
155	0x3d84a481	0.06476689
156	0x3d0f1fdf	0.034942504
157	0xbc6e5ae9	-0.014548042
158	0xbc5db497	-0.0135318255
159	0x3da160e4	0.078798085
160	0x3c695382	0.014241101
161	0x3d856a26	0.06514387
162	0x3d8b4655	0.06800524
163	0xbc9921f4	-0.018692948
164	0xbd978d95	-0.074000515
165	0xbd60bd30	-0.054867923
166	0xbd112797	-0.035438146
167	0x3d54b180	0.05192709
168	0x3c8a959d	0.016917044
169	0x3d85b523	0.0652869
170	0xbd64a5f4	-0.055822328
171	0xbd01dfb0	-0.031707466
172	0xbc28d0d9	-0.010303699
173	0xbd7601c7	-0.06006029
174	0xbd1912e1	-0.03737152
175	0x3bdaa3dc	0.0066723656
176	0xbd85d428	-0.06534606
177	0x3da8fee7	0.08251744
178	0x3db76ed7	0.08956688
179	0x3d4d1ec4	0.05007817
180	0xbcea0a27	-0.028569294
181	0x3d19f682	0.037588604
182	0xbd7ad318	-0.06123647
183	0xbdaaaba4	-0.08333519
184	0x3d1589a7	0.03650823
185	0x3d334e93	0.043776106
186	0xbd8a30b0	-0.06747568
187	0x3c838a09	0.016057031
188	0xbcd4ad20	-0.025961459
189	0xbcf2f0f3	-0.02965591
190	0x3d067f3d	0.032836188
191	0xbdaf6cce	-0.08565675
192	0xbd4f5cbf	-0.05062556
193	0xbd8360b9	-0.06414933
194	0x3b80d694	0.0039318297
195	0x3d4ced99	0.05003128
196	0x3d333645	0.043752927
197	0xbdbb6ee5	-0.09152011
198	0xbd618a7a	-0.055063702
199	0x3d96c171	0.07361115
200	0xbb9975b2	-0.00468322
201	0xbdcf3908	-0.101183
202	0xbd94f27a	-0.07272811
203	0x3d893aeb	0.06700691
204	0x3d9dad39	0.07699055
205	0xbd97c262	-0.074101225
206	0xbd925e25	-0.07146863
207	0xbc988dd7	-0.018622322
208	0xbd3e185e	-0.046409957
209	0x3d482492	0.048863
210	0xbcdf5ab7	-0.027264936
211	0x3c29d241	0.01036507
212	0x3d04294e	0.032265954
213	0x3cb1ae3e	0.02168953
214	0xbda85432	-0.08219184
215	0x3d8c56ea	0.06852515
216	0xbb905db5	-0.004405702
217	0xbd0b5042	-0.034012087
218	0x39daec1b	0.00041756112
219	0x3d850804	0.064956695
220	0x3b6920e1	0.0035572576
221	0x3cafc2a3	0.021455115
222	0x3c901cca	0.017591853
223	0xbd086a73	-0.033304643
224	0x3da0e48f	0.07856094
225	0xbce2358e	-0.027613427
226	0x3cbb2ec0	0.02284944
227	0x3d40885e	0.04700505
228	0xbc4ed456	-0.012623867
229	0x3cd28f00	0.025702953
230	0x3d468c70	0.048473775
231	0xbdce0096	-0.100587055
232	0x3c862864	0.016376682
233	0xbda4c699	-0.08045692
234	0x3d9a2616	0.075267956
235	0xbdb4a241	-0.0882001
236	0x3d17210c	0.03689675
237	0x3d80491d	0.06263945
238	0x3d2fe9a7	0.042947438
239	0xbd8a0829	-0.06739838
240	0x3c0b3783	0.008497122
241	0x3dade98f	0.084918134
242	0xbd95e99d	-0.07319949
243	0xbca1253b	-0.019671073
244	0xbdc59cd7	-0.096490555
245	0xbc3ee7a1	-0.011651904
246	0xbd24364b	-0.04009084
247	0xbceb702e	-0.028740015
248	0x3d7abc77	0.06121489
249	0xbd0acd2c	-0.033887073
250	0x3d818ccf	0.06325685
251	0x3d5b407c	0.053528294
252	0xbc0e4021	-0.008682282
253	0x3d675621	0.056478623
254	0xbcff5cb4	-0.031172134
255	0x3d8ece68	0.069729626

net.4.bias f4 [62]
0	0xbe45cd86	-0.19316682
1	0xbd1392c7	-0.03602865
2	0x3b987691	0.004652806
3	0x3c7376c6	0.014859861
4	0x3da17f4e	0.078856096
5	0x3d3eef80	0.046615124
6	0xbc9a04b1	-0.018801065
7	0xbde7d893	-0.11320605
8	0xbe37fb16	-0.17966875
9	0x3d942f7e	0.07235621
10	0x3e5cd6ab	0.21566264
11	0x3e1082b0	0.14112353
12	0xbdef03d0	-0.11670649
13	0xbda660bd	-0.0812392
14	0x3bf357ed	0.007426253
15	0x3df6d486	0.120522544
16	0x3e254fc9	0.16143717
17	0xbe50f79b	-0.20406954
18	0x3cb607d7	0.022220535
19	0xbdc8e164	-0.09808615
20	0x3c98ff0f	0.018676309
21	0x3e1b809b	0.15185778
22	0x3e292827	0.16519223
23	0x3daa1b93	0.083060406
24	0xbe31b2d8	-0.1735338
25	0xbce43ecd	-0.027861977
26	0xbd4486e7	-0.047980215
27	0x3af63825	0.0018785043
28	0xbcd6daf4	-0.026227452
29	0xbe420369	-0.18946613
30	0xbe1766bc	-0.14785284
31	0xbe184cc1	-0.1487303
32	0x3e35e4cc	0.1776306
33	0xbe19af6e	-0.15008327
34	0x3e55a971	0.20865418
35	0x3cbd5762	0.023112956
36	0x3dba9143	0.09109738
37	0xbe634b27	-0.22196637
38	0x3d861c75	0.065483965
39	0xbe6c109b	-0.2305321
40	0xbe41bd40	-0.1891985
41	0xbe4413fd	-0.1914825
42	0xbb804ea1	-0.0039156233
43	0xbe011464	-0.12605435
44	0xbe01c1bd	-0.12671562
45	0xbdce118c	-0.100619406
46	0x3ca7f321	0.020501675
47	0xbd357405	-0.044300098
48	0xbe20b973	-0.15695743
49	0x3dd6c613	0.104869984
50	0x3e30c351	0.17262007
51	0xbe501e35	-0.20324023
52	0xbe3715a4	-0.17879349
53	0x3e146ac6	0.14493856
54	0x3d724e24	0.059156552
55	0xbde04e57	-0.10952442
56	0x3e509108	0.20367825
57	0x3dd45817	0.10368364
58	0xbd905147	-0.070467524
59	0x3cea57d9	0.028606342
60	0x3e3bb9f1	0.1833265
61	0x3e0b18b7	0.13583647

net.6.weight f4 [18, 62]
0	0x3ddb06d6	0.10694663
1	0xbce3c08c	-0.027801774
2	0x3d198e68	0.037489325
3	0xbd84c817	-0.064834766
4	0xbdf10ef5	-0.11770431
5	0xbddeb218	-0.108738124
6	0xbd63f3bc	-0.055652365
7	0x3da81bf6	0.08208458
8	0x3d45c9a1	0.04828799
9	0xbdb3f4ce	-0.08786927
10	0xbe14ae57	-0.1451963
11	0x3d81df52	0.06341423
12	0x3dc87b0e	0.09789096
13	0xbc49bcfa	-0.012313122
14	0xbd916e26	-0.07101087
15	0xbe2653bf	-0.16242884
16	0xbe16b7b6	-0.14718518
17	0x3bdab085	0.006673875
18	0xbd1e4afc	-0.03864573
19	0x3d0c42e7	0.03424349
20	0xbc9d622a	-0.019211847
21	0xbe0610b7	-0.13092314
22	0xbdd41dc9	-0.103572436
23	0x3cb33d11	0.021879705
24	0x3e19b605	0.15010841
25	0xbcbca46a	-0.023027617
26	0x3d682d9e	0.05668413
27	0x3d60e609	0.05490688
28	0x3ddfc86d	0.109269
29	0x3e2b1837	0.16708456
30	0x3dcabf29	0.09899742
31	0x3af22ad9	0.0018475904
32	0xbdbf9df2	-0.093562976
33	0xbd867c6d	-0.06566701
34	0xbd164077	-0.036682572
35	0x3cb6989b	0.022289565
36	0xbdcd7cb8	-0.10033554
37	0x3db0b4b5	0.08628217
38	0x3d918014	0.07104507
39	0x3e0e4f91	0.1389754
40	0x3e273d52	0.16331986
41	0x3de0d360	0.109778166
42	0x3cd8f3ef	0.026483504
43	0x3e2ef90b	0.1708719
44	0x3be70ed8	0.00705133
45	0x3d06f2c2	0.032946356
46	0xbdbcbf47	-0.09216171
47	0x3def3752	0.116804734
48	0x3df2f558	0.11863202
49	0xba9644bf	-0.001146458
50	0xbe0bc322	-0.13648656
51	0x3ddc47ba	0.10755868
52	0x3e139826	0.14413509
53	0x3d1fc935	0.039010245
54	0xbdb0ae9b	-0.08627053
55	0x3c9646ef	0.01834437
56	0xbdb9073e	-0.090345845
57	0xbd89bb2b	-0.067251526
58	0xbccb01ec	-0.02478119
59	0x3df27035	0.11837808
60	0x3c5700aa	0.013122717
61	0xbd1beef4	-0.03806968
62	0x3db588d6	0.0886399
63	0xbcb09d8a	-0.021559495
64	0xbd0190a4	-0.03163208
65	0x3dbdb883	0.092637084
66	0xbdaf864f	-0.08570539
67	0xbd82495d	-0.06361649
68	0x3d0fce95	0.03510912
69	0xbd6d2c1e	-0.0579034
70	0x3e08d601	0.13362886
71	0x3d352f6c	0.04423468
72	0xbdf61a26	-0.12016706
73	0xbd3d1367	-0.04616108
74	0x3d9db7e7	0.07701092
75	0x3dcff6d3	0.101545
76	0xbdd06fc2	-0.10177566
77	0xbe0c7787	-0.13717471
78	0x3dcb3ced	0.0992373
79	0x3dcc3a83	0.09972098
80	0xbd9c2cdc	-0.07625744
81	0x3e18ba4c	0.14914817
82	0xbd53125b	-0.051531177
83	0xbe1478a9	-0.14499153
84	0x3cfebada	0.031094957
85	0xbd5d6ab7	-0.05405685
86	0x3ddbc7c4	0.10731462
87	0x3d4c55be	0.049886458
88	0x3de2b596	0.11069791
89	0x3d15c241	0.036562208
90	0xbd7934c1	-0.060841326
91	0x3e024b74	0.12724096
92	0x3da1f45e	0.079079375
93	0x3ca01346	0.01954044
94	0xbe30dbd0	-0.17271352
95	0xbd6bf724	-0.05760874
96	0xbe139466	-0.14412078
97	0xbd84adce	-0.06478463
98	0xbc90cd42	-0.017676
99	0x3da99034	0.08279458
100	0xbd823cea	-0.06359275
101	0x3e3752c2	0.17902663
102	0x3cff66e7	0.031176997
103	0x3e2a582b	0.16635196
104	0xbc93989e	-0.01801711
105	0x3c7000ca	0.014648626
106	0xbdc72052	-0.097229615
107	0xbd99ddb6	-0.07512991
108	0xbda08ee1	-0.07839752
109	0x3d95f121	0.07321382
110	0x3dbef953	0.093248986
111	0x3d5be69d	0.053686727
112	0xbe15deec	-0.14635819
113	0x3de367ef	0.11103808
114	0xbd3c7156	-0.046006523
115	0xbd99027e	-0.074711785
116	0xbd9bdca4	-0.07610443
117	0x3d0ed1b4	0.034867957
118	0xbd761166	-0.060075186
119	0x3d9ede52	0.07757248
120	0xbd59772f	-0.053092178
121	0x3defb412	0.117042676
122	0xbe1f53fe	-0.15559384
123	0x3c8f397c	0.017483465
124	0x3e4b8f93	0.19878988
125	0xbceff78e	-0.029292848
126	0xbd895b86	-0.0670691
127	0xbdb06db5	-0.08614675
128	0x3d74bcc8	0.05975035
129	0x3b04d1f4	0.0020266743
130	0xbdb8787e	-0.09007357
131	0xbd0f2d98	-0.03495559
132	0xbd3714ce	-0.044697575
133	0xbb7d7c7a	-0.003867893
134	0xbe42e743	-0.19033532
135	0xbba008a0	-0.0048838407
136	0x3e0c24d1	0.1368592
137	0xbb2e9242	-0.002663747
138	0x3bf15ab2	0.007365548
139	0xbb25a950	-0.002527792
140	0xbcdee770	-0.027209967
141	0xbd304834	-0.04303761
142	0x3dd641e4	0.104617864
143	0xbc1e15a5	-0.009648715
144	0xbde05fdd	-0.109557845
145	0xbdc1c8b4	-0.09462109
146	0xbe128375	-0.1430796
147	0xbd75ed4f	-0.06004077
148	0x3e3bbd49	0.18333925
149	0x3da55e05	0.080745734
150	0x3e08612b	0.13318317
151	0x3c06762d	0.008206886
152	0x3d7cf3e8	0.061756045
153	0x3d422b61	0.04740465
154	0x3e0347c4	0.12820345
155	0x3e121281	0.14264871
156	0xbe31fa39	-0.17380609
157	0xbd797880	-0.060905933
158	0x3cd91100	0.026497364
159	0x3d35c52c	0.04437749
160	0x3d78db07	0.060755756
161	0x3e188d40	0.14897633
162	0xbc5158f2	-0.012777554
163	0x3d06cb4b	0.03290872
164	0x3da95f57	0.08270138
165	0x3e23ca77	0.15995203
166	0xbc258f15	-0.010104914
167	0x3e004d55	0.125295
168	0xbcc32717	-0.02382235
169	0x3c138c2a	0.009005586
170	0x3df36cee	0.11886011
171	0x3ce6d134	0.028175928
172	0x3db27332	0.08713378
173	0x3db3c0d8	0.087770164
174	0xbd90794e	-0.07054387
175	0x3e3f4955	0.18680318
176	0xbb2baaa0	-0.002619423
177	0xbd91bc9e	-0.07116054
178	0xbc919d33	-0.017775154
179	0x3e0c7369	0.137159
180	0xbdfd517c	-0.123690575
181	0xbda38380	-0.07984066
182	0x3c1197f2	0.008886324
183	0xb989235c	-0.0002615702
184	0xbcf0861d	-0.029360825
185	0xbd74fa23	-0.05980886
186	0x3e050e3a	0.12993708
187	0xbc6fcc14	-0.014636058
188	0xbc9815a1	-0.018565001
189	0x3da79e57	0.08184498
190	0xbdb77c09	-0.08959205
191	0xbdb478b1	-0.088120826
192	0x3d8c6078	0.068543375
193	0xbdab63c8	-0.08368641
194	0x3e3789a3	0.17923598
195	0x3d1fa166	0.03897228
196	0xbc7f1199	-0.01556816
197	0xbcb5e2d8	-0.022202894
198	0xbd4b1a1a	-0.04958544
199	0x3c8d2c0b	0.017232915
200	0x3d859ee7	0.06524449
201	0xbdd60dd3	-0.104518555
202	0xbe0570e9	-0.13031353
203	0x3da814c0	0.08207083
204	0xbdbf9992	-0.09355463
205	0x3ddac889	0.1068278
206	0xbdef30e6	-0.116792485
207	0xbd59c5f9	-0.053167317
208	0xbd2f34e0	-0.042775035
209	0xbe1c6d73	-0.15276127
210	0x3dfd5938	0.12370533
211	0xba8622e0	-0.0010233782
212	0x3c9da036	0.019241434
213	0xbe0a193c	-0.13486189
214	0x3a836f0d	0.0010027603
215	0x3dd64679	0.1046266
216	0x3daaa9fc	0.08333203
217	0x3e2f0e35	0.17095263
218	0x3c5c2471	0.013436423
219	0x3e07e1c1	0.13269712
220	0x3d4b3091	0.049606863
221	0xbc1c8143	-0.009552303
222	0xbdd99022	-0.10623194
223	0x3e37c49e	0.17946097
224	0xbd08de2c	-0.033415005
225	0x3c0b708a	0.008510718
226	0x3de40b0b	0.11134919
227	0x3e05bc5e	0.13060138
228	0xbe065ba2	-0.13120893
229	0x3979008a	0.00023746691
230	0x3dff3725	0.1246169
231	0xbc8a3d43	-0.016874915
232	0x3d30068a	0.042974986
233	0xbd7ffa03	-0.06249429
234	0x3dfdd4db	0.123941146
235	0xbdab0450	-0.08350432
236	0xbd03511a	-0.032059766
237	0x3e54a81a	0.2076725
238	0x3e0cf163	0.13763957
239	0xbdd89a1f	-0.10576271
240	0xbceadc3a	-0.028669465
241	0xbceb5a1b	-0.02872949
242	0xbda714a0	-0.08158231
243	0xbd499731	-0.049216453
244	0xbd070f6d	-0.032973696
245	0xbdddbf80	-0.10827541
246	0x3cc8640f	0.024461774
247	0xbbf00d86	-0.007325831
248	0x3e5c73a7	0.21528493
249	0x3c9bcf61	0.019019784
250	0xbdf9690c	-0.12178239
251	0xbdd97dff	-0.10619735
252	0xbdd20b87	-0.10256105
253	0xbe0fedcd	-0.14055558
254	0xbd6f3df8	-0.058408707
255	0xbbcd62da	-0.0062678875

net.6.bias f4 [18]
0	0xbe04e0d8	-0.12976396
1	0xbddf7a21	-0.10911966
2	0xbe885bce	-0.2663254
3	0xbe84c27a	-0.25929624
4	0xbdcafa77	-0.09911054
5	0xbe68f3ea	-0.22749296
6	0xbe0a36d7	-0.13497482
7	0xbe14262e	-0.1446769
8	0xbe0eb17a	-0.1393489
9	0xbe4e5c19	-0.2015232
10	0xbe015e23	-0.12633567
11	0xbe1116ab	-0.14168803
12	0xbe9c23e9	-0.30496147
13	0xbdcd19f3	-0.10014715
14	0xbe55aaf0	-0.20865989
15	0xbe840e1b	-0.25792012
16	0xbe694b98	-0.22782743
17	0xbdb188f0	-0.08668697
